ui/emnist_cnn.pth (torch, 850423 bytes, 8 tensors)

conv1.weight f4 [16, 1, 3, 3]
000000 db b0 ee 3e 1d 41 2c be 08 d9 8a be 9e 1b e5 3d
       0.46619305 -0.16821714 -0.27118707 0.11186908
000010 39 d1 35 3e 74 5a ce be 9b 54 a5 3e 2b 54 47 3e
       0.17755593 -0.40303385 0.3229111 0.19465701
000020 e6 6a 0f bf 00 bd 57 3e 87 7f cb 3e e6 d1 fb 3d
       -0.5602249 0.21068192 0.39745733 0.12295894
000030 db 19 cf 3e eb bc 94 3e 45 34 f0 be 54 87 bf bc
       0.40449414 0.29050383 -0.46914878 -0.02337996
000040 10 1c 08 bf 63 9c e6 be 06 93 ff be 34 6c 83 3e
       -0.5316782 -0.4504119 -0.49916857 0.2566849
000050 f8 3d 6c bc 71 c2 ae 3e 05 60 55 3e 87 ba 87 3e
       -0.014419071 0.34132722 0.2083741 0.26509497
000060 6c f9 75 3e 72 bd c7 be b8 9a c4 be 6b 92 84 be
       0.24020928 -0.39011723 -0.3839929 -0.25892958
000070 40 39 9e 3e 6f 2b d1 3e 60 05 9f be f8 1e 85 be
       0.30903053 0.4085345 -0.31058788 -0.2600019
000080 4e ae d7 3e 58 6f 99 3c 14 cb e7 be af 54 4b 3c
       0.4212517 0.01872985 -0.45272124 0.012410327
000090 e3 ac 6d 3e f2 da 6b be f8 31 94 3d cf 86 62 bd
       0.23210482 -0.2303274 0.07236093 -0.055304345
0000a0 a9 5e 1f bd 8a f0 6a 3e 9b 4c 13 be b1 67 73 3e
       -0.038908634 0.22943321 -0.14384691 0.23770024
0000b0 3c b4 49 3e 44 48 1c bf 04 84 7c 3b 67 29 9a 3e
       0.1969766 -0.6104777 0.0038530836 0.30109712
0000c0 c2 25 37 be 94 a9 15 3e a2 c9 79 3e fd 71 5f bd
       -0.17885497 0.1461547 0.24393323 -0.054552067
0000d0 25 38 12 be 5d 4a c2 3e b2 51 1b 3f 03 c2 4f be
       -0.1427923 0.3794736 0.6067153 -0.20288853
0000e0 9c 6f 6d be c4 cf 48 3e f6 6c 42 bf 49 ac 57 bd
       -0.23187107 0.19610506 -0.7594751 -0.05265454
0000f0 e5 b7 e0 be 73 ef 81 3e c1 09 1c 3f b8 f9 aa 3e
       -0.438903 0.25377998 0.60952383 0.33393645
000100 c8 37 04 be e7 57 01 bf 00 d0 51 3e 7f 24 4d be
       -0.12911904 -0.50524753 0.20489502 -0.20033453
000110 c0 67 02 bf 3e ab 21 3f dc 6f d1 3d 91 2e 23 3e
       -0.5093956 0.6315192 0.102264136 0.15935732
000120 63 26 e9 bd f5 e5 aa be fd 67 ab be fe 03 a6 be
       -0.11384275 -0.33378568 -0.33477774 -0.3242492
000130 9d 3c 7e bd f6 85 f9 bd 6d c3 8d 3d 8c e1 83 be
       -0.062069524 -0.12183754 0.0692204 -0.25758016
000140 22 a4 d3 bd 00 07 50 be cc 35 dd 3e 9c d2 9a be
       -0.1033404 -0.2031517 0.43205106 -0.30238807
000150 01 07 1c 3e bf ac 36 3b 5a 8a ab be 3a 58 66 3e
       0.15237047 0.002787396 -0.3350399 0.22494593
000160 30 35 56 3e 73 90 12 be 3e 7f 2e 3d 1c 08 ce be
       0.20918727 -0.14312916 0.042601816 -0.40240562
000170 19 51 0c 3e d4 b7 cf 3e 04 22 12 bf 0b 8d 04 3e
       0.13702811 0.40569937 -0.57083154 0.12944429
000180 e8 47 b4 3e c6 f3 c5 bc 02 cc 8f be 5f 40 11 3e
       0.3521111 -0.024164092 -0.28085333 0.14184712
000190 66 36 c8 3e df 92 19 3f 26 40 31 3e 51 ad 3e be
       0.39104003 0.5998973 0.17309627 -0.18620802
0001a0 fa 90 32 3e 09 66 f9 be b6 18 f4 be 5c c9 e5 be
       0.17438117 -0.4871066 -0.47675103 -0.44880188
0001b0 14 f4 2e be ad 06 79 be 63 5f c8 be 82 0b ce be
       -0.17085296 -0.24318953 -0.39135274 -0.40243155
0001c0 9a 9d 49 be 9a b6 33 be 27 13 bb be ec 03 0b be
       -0.19689026 -0.17550126 -0.3653805 -0.13575715
0001d0 f0 c0 d6 be a9 fc e3 be 94 80 c0 3d bc 6a b8 3e
       -0.41944075 -0.44528702 0.09399524 0.36018932
0001e0 d8 6e 89 be 36 e1 84 be d8 fb ad 3e f3 0b 53 be
       -0.2684238 -0.25953072 0.33981204 -0.20610027
0001f0 ff be b6 be e6 23 7a be 3e 1d a0 3b 94 c0 ac 3d
       -0.35692593 -0.24427757 0.0048862984 0.08435169
000200 97 0c 29 bd 6f 45 52 3e 5d b5 8c 3e bf c2 7f 3e
       -0.041271772 0.205343 0.2748212 0.24976633
000210 03 a6 b9 be db d6 ea 3c c0 20 56 be b8 31 3b be
       -0.3625947 0.028666904 -0.2091093 -0.18280685
000220 57 8a de be 66 7a 25 bf 93 85 0a 3e 73 35 15 be
       -0.4346492 -0.6463989 0.13527517 -0.1457117
000230 18 25 9c 3b 8e eb e0 3e 52 5d 04 3f 13 03 88 3e
       0.004765164 0.43929714 0.51704895 0.26564845

conv1.bias f4 [16]
000000 8d e6 99 3d e3 cb 5b bd 70 22 5e be 15 cb 7d 3b
       0.07514677 -0.05366124 -0.21692824 0.0038725783
000010 9a 29 52 3e 5a 9d df bc 7c 74 8b 3d 92 d0 0b 3b
       0.20523682 -0.02729671 0.06809327 0.0021334034
000020 c4 fc c6 3d d8 bb 95 3d 45 99 1a 3d 82 c5 74 3c
       0.0971618 0.07311219 0.037743825 0.014939668
000030 2e b1 e4 3c 43 48 0c bd a0 36 72 be f8 a5 36 bd
       0.027916517 -0.0342486 -0.2365365 -0.044591874

conv2.weight f4 [32, 16, 3, 3]
000000 27 71 2a be b8 c2 5b 3e 90 bf d1 3d 07 bd 12 be
       -0.16644727 0.21460998 0.10241616 -0.1432992
000010 ad 7f 0a 3e 89 70 f4 3d ae 30 31 be da 52 b8 bd
       0.13525267 0.11935527 -0.17303726 -0.09000178
000020 0a 6e 92 3d 8b 42 b8 bc 28 6c 51 bd c9 9f 74 3b
       0.071498945 -0.022492668 -0.051128536 0.0037326685
000030 91 36 08 be c2 d7 0a be 52 ab 59 be 26 08 8a be
       -0.13302065 -0.13558868 -0.2125676 -0.26959342
000040 af 8f 1e be bf 87 f0 bd bc 9d b6 bb 76 8c 94 bc
       -0.15484498 -0.117446415 -0.0055730026 -0.018133383
000050 b9 37 4a bd e6 a7 29 be 27 4f 0e bd 00 4f ce 3b
       -0.049369548 -0.16567954 -0.034743454 0.0062960386
000060 7a 91 91 be fa 40 2e 3b f8 23 93 3d f5 96 10 3e
       -0.28431302 0.0026589022 0.07184595 0.14120086
000070 c3 a3 17 3d f1 5d 52 3e b6 ba 19 3e a0 a9 13 3e
       0.03702141 0.20543648 0.15012631 0.14420176
000080 d7 6d ea bd 16 7e 3b 3d 81 25 40 3d 9c 8d 21 bd
       -0.114467315 0.04577454 0.046910767 -0.03944169
000090 71 cf 27 be d4 f8 3f 3d 94 75 86 be a4 4e 52 be
       -0.16387726 0.04686816 -0.2626158 -0.20537812
0000a0 8a 7a ae bc 43 94 21 be 22 ea cd bd 7d b7 de 3b
       -0.021298666 -0.15779214 -0.10054423 0.006796776
0000b0 d0 02 94 bd d7 bc 07 bc 43 d0 8e bd 8a 9a 2f be
       -0.07227099 -0.008284769 -0.069733165 -0.17148796
0000c0 67 66 ba bb 86 b3 0b 3e 0d 17 26 bc c4 69 4b 3b
       -0.005688477 0.13642702 -0.010137332 0.0031038383
0000d0 e0 2d 80 3d d8 93 6c be cb 39 9b 3e 42 34 b9 bc
       0.0625875 -0.23103273 0.3031753 -0.022607926
0000e0 5d fc 32 3e 37 e1 2d 3e 0b 74 3d bd 30 35 62 3e
       0.17479081 0.16980444 -0.046253245 0.22090602
0000f0 dc a8 64 3e ed cd ef ba ce 20 7a 3e e5 6d 6b be
       0.2233004 -0.0018295624 0.24426576 -0.2299114
000100 50 7f 32 3e 61 f7 35 3e 62 f5 67 be 14 1b eb 3d
       0.17431378 0.17770149 -0.226522 0.11479774
000110 94 0e 16 3e c5 aa fb 3d d2 74 fa bd 25 21 0c 3e
       0.14653999 0.12288431 -0.12229313 0.13684519
000120 52 80 35 3d d7 c2 d4 bd b5 c8 25 3c 07 40 87 3d
       0.04431183 -0.10388725 0.010118653 0.06604009
000130 d5 05 c7 be a3 0f 8e 3d f8 b8 60 3d 42 cd 37 bd
       -0.38871637 0.06936576 0.0548639 -0.044873483
000140 b4 a3 38 3c 9f 2a 1d be 67 62 63 3e d0 0f 5f bd
       0.011269499 -0.1534829 0.22205506 -0.05445844
000150 02 9f ce be de fe 88 3e cf 43 91 bd 4c 02 98 bd
       -0.40355688 0.26756948 -0.070930116 -0.07422313
000160 ba aa e8 3d 35 f4 31 3d a4 e0 02 3e 13 df 19 bd
       0.113606885 0.043445785 0.12781006 -0.037566256
000170 9b 80 58 3e 1d 01 96 3e 06 83 be bd c1 67 09 3e
       0.21142809 0.29297724 -0.093023345 0.13418485
000180 66 02 b4 3e 2f ec 30 be f3 95 48 bc eb f8 0c 3d
       0.3515808 -0.17277597 -0.012242782 0.034417074
000190 4e b4 2e be f3 b9 a7 3c ad 0e a7 3d 85 6e c5 bc
       -0.17060968 0.02047441 0.08157096 -0.024100551
0001a0 55 ca 41 be 49 61 b1 be d5 d7 a9 be c1 59 cc 3d
       -0.1892484 -0.34644535 -0.3317248 0.09978057
0001b0 f6 c5 6e bc a4 41 47 be b0 37 e7 bd 7b 46 ab 3c
       -0.014573565 -0.19458634 -0.112899184 0.020907631
0001c0 39 fb c1 be f8 8d 5b 3b 6b 3f fe 3d f9 ab 3c 3c
       -0.3788698 0.0033501368 0.1241444 0.011515611
0001d0 97 15 5c 3c f3 32 43 3e 4f de a1 3d 49 74 dc 3d
       0.013432882 0.19062404 0.0790373 0.10764367
0001e0 40 f6 1e 3e aa c9 67 3c c3 9a d1 bc 2c 06 58 bd
       0.15523624 0.014147202 -0.025586491 -0.05274026
0001f0 41 43 89 bc 29 0d a7 3d 6b ca 05 be 23 f7 a0 bc
       -0.016755702 0.08156807 -0.13065498 -0.019649094
000200 2c 21 a0 be a0 22 80 be d0 8b 29 3d 39 df 44 be
       -0.31275308 -0.25026417 0.0413931 -0.19225778
000210 50 62 89 be 5e eb 57 be 6e dd 9e be 38 62 da bc
       -0.2683282 -0.21085879 -0.31028312 -0.026658162
000220 66 9a 08 3e 69 5a ac bc 61 d1 fb bd 01 06 27 3e
       0.13340148 -0.021039205 -0.12295795 0.16310884
000230 a1 08 d6 3a de 63 d3 3d b7 61 47 bd 42 57 04 be
       0.0016329476 0.103217825 -0.048677173 -0.12923911
000240 97 97 2e 3e f2 6b 23 3e 73 a4 09 be 70 35 a9 be
       0.17050014 0.15959147 -0.13441639 -0.33048582
000250 93 94 17 bd 61 d9 22 bc 8d 89 ec bd ab d9 44 be
       -0.037006926 -0.0099395225 -0.11549673 -0.19223659
000260 cf 12 ae bd e2 d2 87 be ab 80 1d be 91 f7 90 3c
       -0.08499681 -0.26528078 -0.15381114 0.017696174
000270 24 0f a3 be ec d3 c7 be 57 6f c5 bd 45 fe c1 bd
       -0.3184749 -0.3902887 -0.09640377 -0.09472326
000280 ee 90 96 be d8 76 a3 be 9c a2 67 3d 67 52 a4 be
       -0.29407448 -0.31926608 0.05655156 -0.32094118
000290 17 8a df 3c 35 a5 c2 3d bc c3 09 bd 9a f5 11 3d
       0.027287526 0.09504167 -0.033633932 0.035634615
0002a0 a7 3f 91 bc 8a 37 dd bd bb df b7 bd bd 76 15 bc
       -0.017730547 -0.10801609 -0.0897822 -0.009122548
0002b0 9d 1b f6 bd c2 6f bf 3e cc b8 72 3e dd 7d 42 3e
       -0.120169856 0.37389952 0.23703307 0.18993326
0002c0 38 ac cf bd 12 6a 49 3e 5a 07 c5 3e 87 8f 48 3c
       -0.1014027 0.19669369 0.3848217 0.012241251
0002d0 1b 39 1e be 85 c6 df bd 4a f1 a3 bd 90 08 7e bd
       -0.15451472 -0.109265365 -0.080050066 -0.062019885
0002e0 58 c2 8c 3d 63 43 24 bd 5b 7f 5f be 97 1e 20 bc
       0.06873006 -0.040103327 -0.21825926 -0.009772918
0002f0 83 a6 1d bd f6 ac 49 be 10 1b 87 be 3f e2 85 3e
       -0.038488876 -0.19694886 -0.26387835 0.26149175
000300 8e 20 32 bd b4 44 2d be 65 ae 03 3e 53 14 ea bd
       -0.043488078 -0.1692074 0.12859495 -0.11429658
000310 1a 80 6b bd e0 50 1f be 26 8f 1b 3b ab 43 fd 3d
       -0.057495214 -0.15558195 0.0023736446 0.12366422
000320 96 3f 67 3e 2c 3e 91 bd a9 2e ce bd 37 88 c3 3d
       0.2258285 -0.070919365 -0.100674935 0.09547465
000330 bb b3 63 3d 07 74 0e be 06 97 01 bd 06 e5 8d 3e
       0.055591326 -0.13911448 -0.031638168 0.27713794
000340 78 80 1d 3e c0 aa 91 be b9 f0 4c bd f7 85 25 3e
       0.15381038 -0.28450584 -0.05003426 0.16164385
000350 34 21 2d 3e 2a c8 48 be db f8 2d be d0 71 f9 bb
       0.16907197 -0.19607607 -0.16989462 -0.0076124445
000360 0a e0 12 be 67 10 57 3d 44 24 75 be 2f 35 b9 be
       -0.14343277 0.052505877 -0.23939615 -0.36173388
000370 93 6a a0 be 3d 08 ff bd 64 02 3a 3d 00 15 97 3c
       -0.3133131 -0.12452743 0.045412436 0.01844263
000380 2a 4c 8e 3c 1c 8b 3f 3e 8e 42 13 bc 61 3c 86 be
       0.017370302 0.1870541 -0.008988036 -0.2621794
000390 e0 c0 83 bd 8f 6e d2 3d e7 0d f2 3d 21 48 85 be
       -0.06433272 0.10274994 0.11819058 -0.26031592
0003a0 b2 ac 90 bd d2 c1 b4 3b f1 83 5a 3e 62 06 c1 3d
       -0.07064189 0.0055162692 0.21339394 0.094250455
0003b0 3c e5 14 be d5 0f 03 bd 51 26 97 3e 32 aa e2 3d
       -0.14540571 -0.03199752 0.2952142 0.110676184
0003c0 54 d7 82 3e ca 13 ac 3d b1 ea f7 3c d0 f0 12 bc
       0.25554907 0.08402212 0.030263277 -0.008968547
0003d0 98 b1 56 be a0 51 97 bd 31 5d a9 3e b3 e1 ca bb
       -0.20966184 -0.073886156 0.33078912 -0.006191456
0003e0 f3 c4 51 3d 5f 37 88 3e 74 23 c7 3b 46 d6 27 bd
       0.051213216 0.26604745 0.0060772244 -0.04097583
0003f0 40 f0 04 be d0 c4 ee 3c 87 c7 51 be 47 cc bc be
       -0.12982273 0.029146582 -0.2048627 -0.368746

conv2.bias f4 [32]
000000 f1 48 3b be 5f 1d 3a be bd f2 c2 bd 62 46 7c bb
       -0.18289544 -0.18175267 -0.09518955 -0.00384941
000010 c2 bc 80 3c a7 06 69 bd 27 4d 51 3d fe d7 93 3c
       0.015715007 -0.05689111 0.05109897 0.018047329
000020 2b 5e 46 be 74 18 7c be bc bf 15 39 8c 89 1d bd
       -0.1937186 -0.24618703 0.00014281174 -0.038461253
000030 39 45 e1 bd 24 81 8e bd 70 a2 ff 3b 44 bd a4 3c
       -0.10999531 -0.06958225 0.0078013465 0.02010978
000040 da b5 74 be 0a fb fc 3d 4d 4a 90 3d 87 86 a3 bd
       -0.23897496 0.123525694 0.07045422 -0.079846434
000050 e7 5a dd bd 5e a0 55 be 94 d5 9c bc fc d8 33 be
       -0.10808354 -0.20861956 -0.01914481 -0.17563242
000060 ce 5a e9 bc 22 4e 9a bc e6 e5 c5 3b e0 88 3d bd
       -0.028485682 -0.018836085 0.006039369 -0.046273112
000070 9c 33 45 be ca df 61 bd bb fd 8d 3c 8e da eb bc
       -0.19257969 -0.055145063 0.017332902 -0.028790738

fc1.weight f4 [128, 1568]
000000 e8 05 00 bb 76 1f 66 bd 3d 86 8b bd ec 75 3c be
       -0.001953477 -0.056182347 -0.06812713 -0.18404359
000010 97 e8 b3 bd ae 9a 96 be b0 41 81 3e 90 87 ab 3d
       -0.08784597 -0.29414886 0.25245428 0.08375466
000020 28 95 d5 bd b2 90 20 bd c0 1f 37 be ef 5b 1e 3e
       -0.1042884 -0.039200492 -0.17883205 0.15464757
000030 62 20 19 3e 48 2d 95 3e b3 f4 63 bd 52 b8 19 3d
       0.1495376 0.2913611 -0.055653285 0.037529297
000040 0b cf 00 bd 82 43 4f be ef 28 8a bc 45 6d 8e 3d
       -0.03144745 -0.20240596 -0.016865222 0.06954435
000050 62 c0 73 3e ea 38 d5 bd 19 e5 b6 3d 3f 95 20 3d
       0.23803857 -0.10411246 0.08930416 0.039204832
000060 a1 02 01 be 93 f4 8c bd f3 d1 9d 3d ff f0 0d 3e
       -0.12598659 -0.06882586 0.0770606 0.13861464
000070 c4 fa 80 bc 2c 84 4d 3d e5 d6 8d 3d a1 c5 6b bd
       -0.015744574 0.050174877 0.069257535 -0.05756152
000080 c6 03 2d 3e bf a0 22 3e a1 1f 8e 3d 3d 6b 5d bd
       0.1689597 0.15881632 0.069396265 -0.05405735
000090 67 88 05 be f0 5c be bc 79 46 3f bd 1a 11 be bd
       -0.13040315 -0.023237675 -0.046698067 -0.092806056
0000a0 b5 c4 ff 3d 73 de ea bd bf 10 fb bd 1f f0 60 be
       0.12488691 -0.1146821 -0.122590534 -0.21966599
0000b0 74 e9 93 bd 28 84 73 be 10 f5 4a be 25 f4 5f bc
       -0.07222262 -0.23780882 -0.19820046 -0.013669048
0000c0 5b 5e 75 bd c0 31 6b 3c 88 f0 81 be ba 67 d4 3d
       -0.059904438 0.014355123 -0.25378823 0.10371347
0000d0 4b 16 87 3e d5 fd 09 bd bf 80 85 3d e3 fc 66 3a
       0.26384196 -0.03368934 0.06518697 0.0008811487
0000e0 03 69 32 bc 2c f4 17 3d 09 91 13 3e 78 5d 9f 3b
       -0.010889295 0.037098095 0.14410795 0.0048634373
0000f0 9b a3 83 3b 67 2a 1b 3e a8 d3 19 bd e9 d9 89 3c
       0.004017306 0.15152894 -0.037555367 0.01682754
000100 49 17 fd bd bc 01 67 3e 88 84 a4 bd 84 7a 53 bc
       -0.12357957 0.22559255 -0.08033091 -0.012907628
000110 38 1f ba 3d ad 9c bf 3d d5 c9 71 3d 52 f2 18 be
       0.09087986 0.093560554 0.059030373 -0.14936188
000120 fd 89 b8 3d eb c6 2d be 95 1a 14 3b 9e 6b ec bc
       0.09010694 -0.16970412 0.0022598852 -0.02885991
000130 20 04 7d bc 5e 8d e7 bd 4f 81 77 3d c5 05 68 3d
       -0.015442878 -0.113062605 0.060426053 0.056646127
000140 2d a5 ac 3c d6 f3 a0 3d c7 02 16 bd 56 94 04 bd
       0.021074856 0.07859008 -0.036623742 -0.032368027
000150 37 e5 a6 bc 3d 3b 85 3c 36 44 ed 3c a3 43 0e 3d
       -0.02037297 0.016263599 0.02896319 0.034732472
000160 72 b5 78 bd 5f 60 75 be 7e 8c ec bd e6 2e 26 be
       -0.060719915 -0.23962544 -0.11550234 -0.16228828
000170 1f 48 65 3d a9 6b 41 3a d2 15 01 bc 69 00 f0 bd
       0.055976983 0.00073784083 -0.0078787375 -0.11718828
000180 3a 35 ef bd 85 7f be be b9 5e 37 3e 88 7f 6d be
       -0.11680074 -0.37206665 0.17907228 -0.2319318
000190 56 9c 3d 3e b8 55 be 3d d9 c8 56 3e 67 31 b0 3e
       0.18516669 0.09293693 0.20975055 0.3441269
0001a0 94 c4 a4 3b 3c 09 7b 3d 43 9e 66 3d 0b c7 ca 3d
       0.0050283168 0.061288103 0.056303274 0.09901246
0001b0 9c c3 58 3e 56 d7 56 bd 00 8c 8b bc 77 4e c5 39
       0.21168369 -0.052451454 -0.01703453 0.0003763323
0001c0 9a ec 52 bd ba 32 04 be b4 83 2d 3d 06 73 71 3d
       -0.051495172 -0.12909976 0.04236193 0.058947586
0001d0 48 4b 3c 3d 37 93 08 bd 45 36 f0 3a bc 70 f0 bd
       0.04597023 -0.03334352 0.001832672 -0.117402524
0001e0 ff 2c 8f bd 17 f5 f4 bc ac 5b da bb 66 88 9a bd
       -0.06991004 -0.029902024 -0.00666376 -0.07545547
0001f0 10 29 d4 3d ab e9 31 3d 8f 91 15 3e 1f b6 ef 3c
       0.103593946 0.043435734 0.14606307 0.029261647
000200 a9 79 7f 3a 4a 65 a5 3d 16 ba 4a bd 29 24 17 3e
       0.0009745607 0.0807596 -0.04949387 0.14759888
000210 2a 00 bf bb 6b 85 e7 3d 33 c1 2b 3e 8f 20 ba 3d
       -0.005828877 0.11304744 0.16772918 0.09088241
000220 66 e1 3a be d2 61 c3 bb e0 53 87 bc a5 07 de 3a
       -0.18250045 -0.005962589 -0.016519487 0.0016939534
000230 be 9f 66 bc 29 9e 36 bd 51 a0 dd bd 4d 2e ac 3c
       -0.014076171 -0.044584427 -0.108215936 0.021018172
000240 42 77 a5 3c c4 93 c3 3c 13 ce e5 bb 14 ed 93 3b
       0.020198468 0.023874171 -0.0070130914 0.004514346
000250 d4 5b 3f bd f9 6b 22 3d de 70 5d 3e 7f d6 6b 3e
       -0.046718433 0.039653752 0.21625087 0.23031043
000260 d1 9c 9e 3d 08 71 11 3c 13 8a e7 39 e5 0e 47 3e
       0.07744754 0.008877046 0.00044162627 0.19439276
000270 ae 0f 16 3d 6c 05 f5 3d d5 db 1f 3d cc 82 5f bc
       0.036636047 0.11963925 0.039028008 -0.013642024
000280 4e a0 37 bd 54 e0 8c 3e 7f b2 e0 ba 9a 1d bf 3c
       -0.044830613 0.275149 -0.001714304 0.023329545
000290 85 9f c5 bc c0 0e 3a 3e bb c6 03 be 77 64 42 bb
       -0.024123916 0.18169689 -0.12868778 -0.0029661932
0002a0 c8 fd b3 bb 08 9f 81 3d 97 3f 18 be 7a 99 3a 3e
       -0.0054928996 0.06329161 -0.14868008 0.18222609
0002b0 c2 17 ed bd fa 6e 4f bd 6d ed 06 bd ac 3c 7d be
       -0.11576797 -0.050642945 -0.03294127 -0.24730176
0002c0 48 1b ab bd 53 98 41 bd 65 ae 3d 3e 1a 7f c4 bd
       -0.08354813 -0.04726441 0.18523557 -0.09594555
0002d0 f1 23 ff 3c 18 97 9b bc e5 6d 90 bd 21 2c 07 3d
       0.031145068 -0.018992946 -0.07052211 0.03300107
0002e0 33 52 0b bd 9a ad f7 3d 9e 0d 08 3c 80 16 05 3e
       -0.03401394 0.12093659 0.008304028 0.12996864
0002f0 1e c3 03 bd a6 cf 9a bd 2a f7 d6 3d ae 38 8d be
       -0.0321685 -0.07559137 0.104963616 -0.27582306
000300 28 31 40 3e 08 d1 8b bd 96 b7 8a 3c 8e 93 56 bc
       0.18768752 -0.06826979 0.016933244 -0.013096703
000310 26 36 a6 bd 43 e3 26 be 0d 91 9e 3d 94 c9 24 3e
       -0.08115797 -0.16297631 0.0774251 0.16092521
000320 5a 2d 61 3d d4 e1 53 bc c6 6a 34 3e d6 82 37 3d
       0.05497489 -0.01293226 0.17618856 0.04480251
000330 7e 7d 99 3d 93 53 bf bc d8 30 a2 3c 95 4f 93 3d
       0.07494639 -0.023355281 0.019798681 0.071929134
000340 89 3d 06 3e e7 d4 95 be 7f 6d e3 3d d1 d9 ad 3d
       0.13109411 -0.29263994 0.11104869 0.08488811
000350 ab 6b 62 bd ed 13 85 bd 11 03 0a bd 39 fe 23 3e
       -0.05527846 -0.06497941 -0.03369433 0.16014947
000360 19 ab 7d bd 72 0a 19 3e 17 ba 34 be 9c d4 91 3d
       -0.06193075 0.14945391 -0.17649113 0.0712063
000370 a4 ab c5 3d 27 ac 62 3d 24 81 29 be c6 6f bd be
       0.096518785 0.05533996 -0.1655317 -0.3699934
000380 12 5d da bd 64 e7 64 be b7 3b b9 ba 8c 41 39 bc
       -0.10662283 -0.22353894 -0.0014132176 -0.0113071315
000390 98 53 c4 3d 76 bf 7e be e6 e8 22 be b6 8a c3 bd
       0.09586257 -0.24877724 -0.15909156 -0.095479414
0003a0 60 f5 86 be 4c 75 81 bd 58 8a 0f bc 18 cb f9 3d
       -0.2635908 -0.06321201 -0.008761011 0.1219694
0003b0 9b 91 12 bd 86 3d e9 3d f5 d2 05 3e 57 c8 5a bd
       -0.03578339 0.11388688 0.13068755 -0.053413715
0003c0 a3 4e b8 3d 71 b1 56 be 3b dc b6 3d 3d 76 5f 3e
       0.08999374 -0.20966126 0.089287244 0.21822448
0003d0 92 92 e5 3d 2f f2 87 3e fd de 15 be f5 0a 84 bd
       0.11209597 0.2655196 -0.14635845 -0.064474024
0003e0 f0 14 95 be e9 9c 86 bd 29 79 d7 be 4c b3 bd 3b
       -0.29117537 -0.06572897 -0.42084625 0.005789196
0003f0 16 b6 20 3d b4 e9 50 be 64 86 15 be 5e ef 19 be
       0.03923615 -0.2040165 -0.14602047 -0.15032718

fc1.bias f4 [128]
000000 1c 0f 70 bb d7 f9 a9 3d a9 7c 08 be e9 27 bb 3c
       -0.00366301 0.08299606 -0.13328804 0.02284618
000010 0e c6 dd bc b9 ed 0d 3a 2d 4e 9a bc 7c 43 64 bd
       -0.027071979 0.00054141466 -0.018836105 -0.05572842
000020 df 0b 6b 3e 48 73 fe 3a 9d 5e d2 bc 89 c3 1c be
       0.22953747 0.0019413019 -0.02567988 -0.15308966
000030 87 3d 9d 3c 8c c0 d7 bc 5f c4 e1 bc 67 6a 2b bd
       0.019194378 -0.02633693 -0.027559457 -0.04184952
000040 ce 34 68 3b c6 65 81 3b 67 33 50 bd 95 b8 91 3d
       0.0035431865 0.0039489 -0.05083027 0.07115284
000050 1a 4b 76 bc 78 8c 44 bd 88 fd fc bc bc c6 d4 bd
       -0.015032554 -0.047985524 -0.030882612 -0.10389468
000060 82 c0 90 bc 7f f8 c8 3b bd a0 70 3d ea e0 ed bc
       -0.01766992 0.0061331387 0.058747042 -0.029037911
000070 0b c4 bc 3d 2b 41 ed bc 07 09 88 bd d6 7c b5 3b
       0.0921708 -0.028961739 -0.06642347 0.0055385632
000080 ec 3b ea 3d ae ca a8 bd b4 0e 8c 3c d2 8d 2a bd
       0.114372104 -0.08241783 0.017096855 -0.041639157
000090 cb 6e b8 bd 5f e5 98 3d dc a6 8b bc cb 7d 1a bd
       -0.09005507 0.07465624 -0.017047338 -0.03771762
0000a0 2c eb 5c bd 39 97 9b 3c 0a f0 a1 bc f1 af 06 bb
       -0.053935215 0.018993007 -0.01976778 -0.0020551647
0000b0 a8 61 01 3d d8 61 a7 3b cf 1a ba bc fe 20 09 bd
       0.031587273 0.0051080994 -0.022717861 -0.03347873
0000c0 d0 14 66 3d cc cb a9 bd 08 59 99 bb 94 14 13 be
       0.056172192 -0.08290824 -0.004679803 -0.14363319
0000d0 d9 6b 22 bd 3b 1a bd 3d 09 ba f1 bc 73 81 84 bc
       -0.039653633 0.09233519 -0.029507654 -0.016175007
0000e0 ed 8c 42 ba a9 5a 65 bc 06 54 91 bd 64 57 2a bc
       -0.0007421512 -0.013998666 -0.07096104 -0.010396812
0000f0 c0 f9 52 bd cc 44 c8 3d 61 1f 11 bc 1a 2d 5e 3d
       -0.05150771 0.09778747 -0.008857579 0.05424223
000100 c4 6e 97 b9 a1 ac e4 bd bc 9d f5 bc 40 d3 ab bc
       -0.0002888349 -0.11165739 -0.02998244 -0.020974755
000110 40 0d 87 3c 3e 21 0b bd 1d 96 b3 bd 0c cb 80 3d
       0.01648581 -0.03396725 -0.08768866 0.06288728
000120 d5 05 a3 3b d3 3a c1 bc c9 8d ed 3c 80 50 e5 3d
       0.0049750605 -0.02358762 0.028998272 0.11196995
000130 06 1d 08 3c 3f 15 f2 bc a7 ad 59 3d 89 db cb bd
       0.008307701 -0.029551147 0.053144123 -0.099539824
000140 0d d6 ae b9 d9 c5 08 bd eb 85 13 3d 37 6a 82 bc
       -0.00033347346 -0.033391807 0.036016386 -0.015919788
000150 4e 94 ab bc 9c 97 8b bd 61 6f 71 bd e2 3b 16 bd
       -0.02094474 -0.068160266 -0.05894411 -0.036678202
000160 01 9c 44 3d 6c de f7 bd 9f a7 09 3d a4 c0 df bb
       0.04800034 -0.121029705 0.03360712 -0.0068283845
000170 45 5c 2b 3c 57 4a 5a bd 85 ac 49 bd 5b 58 35 be
       0.0104590105 -0.053293552 -0.049236793 -0.17709486
000180 99 11 0d bd 47 fb 71 bd c3 fd 9f 3c 9b bf a8 bd
       -0.03444061 -0.059077527 0.019530183 -0.08239671
000190 85 5e 04 3e 71 cd 75 bb d4 ad 8e bd c3 1c 1f bd
       0.12926681 -0.0037506486 -0.06966749 -0.03884579
0001a0 37 71 28 bd 85 7e 0e bd 60 31 f4 bc 02 18 f4 bb
       -0.041123595 -0.034788627 -0.0298087 -0.007449151
0001b0 2f 4b 80 3c 36 bf 08 bd a4 c6 95 bd 75 6a 37 bd
       0.01566085 -0.033385478 -0.07313278 -0.04477926
0001c0 c4 7a 87 bc 81 11 04 be ff 17 05 be c8 91 17 3c
       -0.016538031 -0.12897302 -0.12997435 0.009251066
0001d0 3b 8f 0d 3c da 0e 14 bc 6d 38 4d 3d 6d b2 a7 3c
       0.008640106 -0.009036744 0.05010264 0.020470822
0001e0 6f e7 4f bd 15 f9 da 3d d1 18 af bc 0f fd f4 bd
       -0.05075782 0.1069204 -0.021374138 -0.119623296
0001f0 7b 43 aa 3b 53 ce 63 bd 1c 0c 65 3c f8 de 1b 3e
       0.0051960326 -0.055616688 0.013979938 0.15221775

fc2.weight f4 [47, 128]
000000 11 1d 0a 3e 94 22 14 3d 5b 95 8c 3d 1e 68 ff 3d
       0.1348765 0.03616579 0.06864425 0.12471031
000010 f7 97 8a 3d d8 f6 ab bd ec 89 1e 3d 82 e5 09 be
       0.06767266 -0.08396691 0.03870575 -0.13466457
000020 1d 6b dd 3d 01 38 83 3d 3a 34 17 bd 60 95 1f bd
       0.10811446 0.06407166 -0.03691504 -0.038960814
000030 df a0 a4 3d 71 a0 0f bd 65 f9 f3 bc f0 2f f9 bc
       0.08038496 -0.03506512 -0.029782007 -0.030418366
000040 99 ae 08 3d c6 43 64 3d 2c 41 ad 3d 6b 61 06 bd
       0.033369634 0.055728696 0.08459696 -0.03280775
000050 60 77 70 3d b2 bf 30 bd 3d 7e 27 be a7 e3 29 bc
       0.058707595 -0.043151565 -0.1635675 -0.010369218
000060 7e b7 0e bd b6 6f a0 3d be 33 5f be a9 c1 55 bd
       -0.03484296 0.07833807 -0.21797082 -0.05218664
000070 18 f4 83 be 42 ca 9e bd 63 7b 6c be 1d d6 98 3d
       -0.25772166 -0.07753421 -0.23093943 0.07462714
000080 b1 72 d6 bd 8c 31 12 3e dc 8f 40 bd ea 3b 72 bd
       -0.104710944 0.14276713 -0.047012195 -0.05913917
000090 c6 31 0e 3b 7c 1e bf 3d 1d 65 8b bc 6b 31 47 3d
       0.0021697148 0.09331986 -0.017015988 0.048631113
0000a0 83 81 ef bd 7e 49 0f 3e e7 c3 00 bd 85 81 3e 3c
       -0.11694624 0.13992879 -0.031436827 0.01162756
0000b0 05 86 32 bc f7 2c 84 bd 5f 82 4a be ab a6 8f 3d
       -0.010896211 -0.06453889 -0.19776295 0.07014211
0000c0 2b c5 3a be 48 54 22 3d 0e 3a 17 3d 85 91 bc 3c
       -0.18239276 0.039631158 0.0369206 0.023018608
0000d0 4a c7 63 3d b2 ad d8 3c 79 55 63 bc 41 85 ab bd
       0.05560998 0.026450012 -0.013875359 -0.083750255
0000e0 3b 60 2b 3d 34 11 ba bd 20 58 4d be 4a 39 0e be
       0.04183982 -0.090853125 -0.20053148 -0.13889042
0000f0 0c 18 26 be b8 ee d5 3b 9a 63 13 3b 63 58 65 3d
       -0.1622011 0.0065287016 0.0022489787 0.055992495
000100 fa 3c fa 3c 3d ae 6d bd 89 4a ca bd a3 90 e1 bd
       0.030546654 -0.058027495 -0.09877498 -0.110139154
000110 37 c6 b0 3b ef 75 97 3a 33 2e 02 be 42 bf 5a bb
       0.005394723 0.0011555533 -0.12712936 -0.0033378159
000120 44 70 c6 bd 35 44 24 3d 21 8d 57 bd f1 d1 e8 3d
       -0.09689382 0.04010411 -0.052624825 0.11368168
000130 27 a2 11 bd a0 fb c7 ba cc 1d 04 be 91 d4 20 bd
       -0.03555503 -0.0015257485 -0.12901992 -0.03926522
000140 1b 93 74 3c 5f 85 65 bc 2a 53 1a be 4b 34 65 be
       0.014927651 -0.014008849 -0.15070787 -0.2238323
000150 61 ec 05 bd 92 c3 73 3c b7 0d c9 3c 0a 37 13 be
       -0.03269613 0.014878171 0.024542673 -0.14376464
000160 27 49 85 bd 33 56 41 be f5 9b 5f 3d 23 1b 40 ba
       -0.06508093 -0.18880539 0.05459209 -0.00073282624
000170 28 04 40 bd 08 80 f4 3c b2 e2 ca 3d 49 da 6e 3c
       -0.046878964 0.029846206 0.0990652 0.01457841
000180 7e 78 67 bd 48 a1 ee 3a 9b 6c d4 be 3d b1 90 be
       -0.056511395 0.0018206025 -0.4148911 -0.28260222
000190 f7 d0 9b be 0f bb 15 3d d0 34 f1 bd a3 7d 02 bf
       -0.30432865 0.036555346 -0.11777651 -0.50972956
0001a0 55 ba 1a bd 86 e7 4f be 71 a4 f1 3c 06 62 fa 3c
       -0.037775356 -0.20303163 0.029497357 0.03056432
0001b0 1c be a0 bd 08 99 88 be 76 ce 9b 3c 1a 2a 4b bd
       -0.078487605 -0.26679254 0.019019347 -0.049600698
0001c0 01 66 91 be e0 1d 20 3d ef 5e 98 39 54 98 11 bc
       -0.28398135 0.03909099 0.0002906243 -0.0088864155
0001d0 bf 16 04 3d 18 d9 4d be f0 09 67 3b a0 71 7a be
       0.032248255 -0.20102346 0.0035253726 -0.24457407
0001e0 f9 02 9d 3d 4b dc 3d 3e a2 57 71 bd dd 68 0f bc
       0.076665826 0.18541066 -0.058921464 -0.008753029
0001f0 3c 94 8f 3d 1f 20 83 bd 4f 09 81 3d bd a8 3b be
       0.07010695 -0.06402611 0.063006036 -0.18326087
000200 6b 62 04 bd 91 ff 15 3e 0c 9a a8 be dc 2f 10 bc
       -0.03232042 0.14648272 -0.32930028 -0.008800473
000210 87 bd 45 bd 67 38 c3 bd 09 3c 61 bd d3 b5 bc 3d
       -0.04827645 -0.09532242 -0.054988895 0.09214368
000220 f1 6b d1 3d 3d ab af 3c 91 a0 3a 3d c5 95 ea be
       0.10225666 0.021443957 0.045563284 -0.4581739
000230 cd ce 82 bd 72 c0 33 3c 20 bf 2a bd 51 c4 99 bd
       -0.063871 0.0109711755 -0.041686177 -0.075081475
000240 8b af ec 3c 26 96 a6 bd 00 56 08 3d 3b 45 ef 3c
       0.0288923 -0.08134107 0.03328514 0.029207816
000250 fe 5c 3c 3d 30 ab 27 bb 53 29 57 be c7 66 02 be
       0.04598712 -0.0025584213 -0.21011858 -0.12734519
000260 f7 5f 1a bd f9 35 89 3d b0 87 9c bc 02 5e 77 3d
       -0.037689175 0.066997476 -0.01910767 0.060392387
000270 6b 13 c0 3b 59 b6 95 bc 9e 97 d1 bd bf 50 2e 3d
       0.00586169 -0.018275427 -0.10233997 0.042557474
000280 a4 c7 c1 be 6e fa 9f be 57 b1 ef bd cb fe 21 3b
       -0.37847626 -0.3124575 -0.11703747 0.0024718519
000290 a0 43 9d 3c 18 d8 da 3d a6 2b 1c 3d 64 38 b5 3c
       0.019197285 0.10685748 0.038127564 0.022121616
0002a0 db 21 52 be a4 42 c0 bd cd 35 02 bc 73 dd 6b 3d
       -0.20520727 -0.09387711 -0.007947397 0.057584237
0002b0 cc d3 d9 bd 2a 0e 6e 3d f4 ca 1a be c0 7f 8d bd
       -0.106361 0.058118977 -0.15116483 -0.06909132
0002c0 40 32 f4 3d a7 38 67 be 1c 32 8f 3d 9f 8e f2 bd
       0.11923647 -0.22580205 0.069919795 -0.11843609
0002d0 da d8 a4 3d 60 fe b3 3d f3 34 1e be f2 ff de 3c
       0.08049174 0.087887526 -0.15449886 0.027221654
0002e0 db a9 a7 3d 03 13 d5 3c 6b 7c 97 be d9 18 ac 3d
       0.08186694 0.026010042 -0.2958711 0.08403177
0002f0 49 7e cf be e0 c3 20 3e 63 6d 11 bd a6 89 af be
       -0.40526035 0.1569972 -0.03550471 -0.34284705
000300 e6 6a cc bd 1b 67 1a be 1d 79 29 be c9 18 d2 3c
       -0.09981327 -0.15078394 -0.16550107 0.025646584
000310 d8 25 86 bd 00 3d 8c bd cd e3 1f bd 2c 33 6b 3e
       -0.06550187 -0.06847572 -0.039035607 0.2296874
000320 d6 73 7b be 23 ee a6 3d ba 94 c5 bd 3e f3 85 3d
       -0.24555907 0.0815089 -0.09647508 0.065405354
000330 30 50 bd bc b7 a7 15 bc d4 6d c6 3d 9c ce 90 bd
       -0.023109525 -0.009134225 0.09688917 -0.070706576
000340 8b 3c 6c 3c 4e da 28 bd ef d1 c1 3d b9 06 98 bb
       0.014418731 -0.041223817 0.0946387 -0.0046394733
000350 46 16 ed 3c b9 03 92 bc b3 88 db 3c 61 09 b3 3d
       0.028941285 -0.01782404 0.026798582 0.08742023
000360 a3 65 32 3d ee e0 77 bc 17 8f 75 bd e0 ce 88 3d
       0.04355396 -0.015129311 -0.059950914 0.06680083
000370 4f 33 a3 bd fe b6 a2 bd 78 61 5c bd be b6 87 be
       -0.07968771 -0.07945059 -0.05380389 -0.2650661
000380 5b c1 f1 bb cd d6 41 3d 5b e5 52 bd 2e d6 d4 bd
       -0.007377786 0.04732399 -0.05148826 -0.10392414
000390 6b f3 2b 3e aa c4 64 be b1 6e 8a bc 93 6e 88 3d
       0.16792075 -0.22340646 -0.016898485 0.06661715
0003a0 63 76 1e bd a4 b1 82 bd 36 b6 7c 3d bd de e7 bd
       -0.03868712 -0.063815385 0.061697207 -0.11321781
0003b0 be a7 fe 3c bb aa b0 3c f1 70 7d bc 5a eb 51 bd
       0.031085845 0.021565786 -0.015468822 -0.05124984
0003c0 7b ed 94 bc 3b f1 3d 3a da 4e a1 3d 5c f9 0c 3e
       -0.018179646 0.0007245724 0.07876368 0.13766998
0003d0 58 59 22 be ad 92 a0 3c 8b 0a 8e bc ed 5f 51 bd
       -0.15854394 0.01960119 -0.017339012 -0.051116873
0003e0 8a 8b 16 be 96 1e 84 3d 11 81 f1 bb 82 43 ba be
       -0.14701667 0.06451146 -0.0073701222 -0.3637963
0003f0 a1 c1 6f bd 38 42 89 3d a3 8e aa bd 40 82 1a 3e
       -0.05853427 0.06702083 -0.08327987 0.15088749

fc2.bias f4 [47]
000000 fc 84 3d bc 57 73 27 3e d5 cf f3 bb 4f 84 4c 3d
       -0.0115673505 0.16352592 -0.007440547 0.049930867
000010 40 88 5f 3c 5e f4 19 bd e3 e8 20 be 81 08 0a 3e
       0.013643324 -0.037586562 -0.15713839 0.13479806
000020 70 02 12 bd 9d 87 b1 bc 26 6d 54 3e b9 93 92 3d
       -0.035646856 -0.02167111 0.20744762 0.07157082
000030 ba 79 e8 bc 5f f9 c6 bd c2 5a 38 3e a9 81 33 bc
       -0.028378356 -0.097155325 0.18003371 -0.010956206
000040 4b b0 4a bd d4 67 91 3c 38 c7 1a 3e 97 10 1a 3d
       -0.049484532 0.017749704 0.15115058 0.037613478
000050 8c ef 0e be dd c9 4c 3d 26 4f c0 bd ae 9b 37 bd
       -0.13958567 0.0499972 -0.09390096 -0.044826202
000060 93 42 05 3e c0 82 fc bd b7 b6 e5 bd 84 80 56 bd
       0.13013677 -0.12329626 -0.11216491 -0.052368656
000070 21 66 1e bc 44 d7 18 3d 8a 17 30 bb 90 97 53 3d
       -0.009667904 0.03731467 -0.00268695 0.051658213
000080 7c e7 49 be 8b 28 38 3d 81 92 c3 bd 88 cb 7f bd
       -0.1971721 0.04496054 -0.09549428 -0.062449962
000090 b0 a2 d6 bc b6 b0 de 3c 9b 80 36 be a9 71 ff bc
       -0.026200622 0.027183872 -0.17822497 -0.031182127
0000a0 2e 2e 20 3d 43 58 90 3d f9 76 91 3d 4a 57 dd bd
       0.03910654 0.070480846 0.0710277 -0.10807665
0000b0 0c 7a dd bc a6 0b c3 bc 89 8c 67 3d
       -0.027035736 -0.023809265 0.05653051
