weights/emnist_cnn_dynamic_quantized.pt (torch, 233907 bytes, 6 tensors)

weight f4 [16, 1, 3, 3]
0.46619305 -0.16821714 -0.27118707 0.11186908 0.17755593 -0.40303385 0.3229111 0.19465701
-0.5602249 0.21068192 0.39745733 0.12295894 0.40449414 0.29050383 -0.46914878 -0.02337996
-0.5316782 -0.4504119 -0.49916857 0.2566849 -0.014419071 0.34132722 0.2083741 0.26509497
0.24020928 -0.39011723 -0.3839929 -0.25892958 0.30903053 0.4085345 -0.31058788 -0.2600019
0.4212517 0.01872985 -0.45272124 0.012410327 0.23210482 -0.2303274 0.07236093 -0.055304345
-0.038908634 0.22943321 -0.14384691 0.23770024 0.1969766 -0.6104777 0.0038530836 0.30109712
-0.17885497 0.1461547 0.24393323 -0.054552067 -0.1427923 0.3794736 0.6067153 -0.20288853
-0.23187107 0.19610506 -0.7594751 -0.05265454 -0.438903 0.25377998 0.60952383 0.33393645
-0.12911904 -0.50524753 0.20489502 -0.20033453 -0.5093956 0.6315192 0.102264136 0.15935732
-0.11384275 -0.33378568 -0.33477774 -0.3242492 -0.062069524 -0.12183754 0.0692204 -0.25758016
-0.1033404 -0.2031517 0.43205106 -0.30238807 0.15237047 0.002787396 -0.3350399 0.22494593
0.20918727 -0.14312916 0.042601816 -0.40240562 0.13702811 0.40569937 -0.57083154 0.12944429
0.3521111 -0.024164092 -0.28085333 0.14184712 0.39104003 0.5998973 0.17309627 -0.18620802
0.17438117 -0.4871066 -0.47675103 -0.44880188 -0.17085296 -0.24318953 -0.39135274 -0.40243155
-0.19689026 -0.17550126 -0.3653805 -0.13575715 -0.41944075 -0.44528702 0.09399524 0.36018932
-0.2684238 -0.25953072 0.33981204 -0.20610027 -0.35692593 -0.24427757 0.0048862984 0.08435169
-0.041271772 0.205343 0.2748212 0.24976633 -0.3625947 0.028666904 -0.2091093 -0.18280685
-0.4346492 -0.6463989 0.13527517 -0.1457117 0.004765164 0.43929714 0.51704895 0.26564845
00000000: dbb0 ee3e 1d41 2cbe 08d9 8abe 9e1b e53d
00000010: 39d1 353e 745a cebe 9b54 a53e 2b54 473e
00000020: e66a 0fbf 00bd 573e 877f cb3e e6d1 fb3d
00000030: db19 cf3e ebbc 943e 4534 f0be 5487 bfbc
00000040: 101c 08bf 639c e6be 0693 ffbe 346c 833e
00000050: f83d 6cbc 71c2 ae3e 0560 553e 87ba 873e
00000060: 6cf9 753e 72bd c7be b89a c4be 6b92 84be
00000070: 4039 9e3e 6f2b d13e 6005 9fbe f81e 85be
00000080: 4eae d73e 586f 993c 14cb e7be af54 4b3c
00000090: e3ac 6d3e f2da 6bbe f831 943d cf86 62bd
000000a0: a95e 1fbd 8af0 6a3e 9b4c 13be b167 733e
000000b0: 3cb4 493e 4448 1cbf 0484 7c3b 6729 9a3e
000000c0: c225 37be 94a9 153e a2c9 793e fd71 5fbd
000000d0: 2538 12be 5d4a c23e b251 1b3f 03c2 4fbe
000000e0: 9c6f 6dbe c4cf 483e f66c 42bf 49ac 57bd
000000f0: e5b7 e0be 73ef 813e c109 1c3f b8f9 aa3e
00000100: c837 04be e757 01bf 00d0 513e 7f24 4dbe
00000110: c067 02bf 3eab 213f dc6f d13d 912e 233e
00000120: 6326 e9bd f5e5 aabe fd67 abbe fe03 a6be
00000130: 9d3c 7ebd f685 f9bd 6dc3 8d3d 8ce1 83be
00000140: 22a4 d3bd 0007 50be cc35 dd3e 9cd2 9abe
00000150: 0107 1c3e bfac 363b 5a8a abbe 3a58 663e
00000160: 3035 563e 7390 12be 3e7f 2e3d 1c08 cebe
00000170: 1951 0c3e d4b7 cf3e 0422 12bf 0b8d 043e
00000180: e847 b43e c6f3 c5bc 02cc 8fbe 5f40 113e
00000190: 6636 c83e df92 193f 2640 313e 51ad 3ebe
000001a0: fa90 323e 0966 f9be b618 f4be 5cc9 e5be
000001b0: 14f4 2ebe ad06 79be 635f c8be 820b cebe
000001c0: 9a9d 49be 9ab6 33be 2713 bbbe ec03 0bbe
000001d0: f0c0 d6be a9fc e3be 9480 c03d bc6a b83e
000001e0: d86e 89be 36e1 84be d8fb ad3e f30b 53be
000001f0: ffbe b6be e623 7abe 3e1d a03b 94c0 ac3d
00000200: 970c 29bd 6f45 523e 5db5 8c3e bfc2 7f3e
00000210: 03a6 b9be dbd6 ea3c c020 56be b831 3bbe
00000220: 578a debe 667a 25bf 9385 0a3e 7335 15be
00000230: 1825 9c3b 8eeb e03e 525d 043f 1303 883e

bias f4 [16]
0.07514677 -0.05366124 -0.21692824 0.0038725783 0.20523682 -0.02729671 0.06809327 0.0021334034
0.0971618 0.07311219 0.037743825 0.014939668 0.027916517 -0.0342486 -0.2365365 -0.044591874
00000000: 8de6 993d e3cb 5bbd 7022 5ebe 15cb 7d3b
00000010: 9a29 523e 5a9d dfbc 7c74 8b3d 92d0 0b3b
00000020: c4fc c63d d8bb 953d 4599 1a3d 82c5 743c
00000030: 2eb1 e43c 4348 0cbd a036 72be f8a5 36bd

weight f4 [32, 16, 3, 3]
-0.16644727 0.21460998 0.10241616 -0.1432992 0.13525267 0.11935527 -0.17303726 -0.09000178
0.071498945 -0.022492668 -0.051128536 0.0037326685 -0.13302065 -0.13558868 -0.2125676 -0.26959342
-0.15484498 -0.117446415 -0.0055730026 -0.018133383 -0.049369548 -0.16567954 -0.034743454 0.0062960386
-0.28431302 0.0026589022 0.07184595 0.14120086 0.03702141 0.20543648 0.15012631 0.14420176
-0.114467315 0.04577454 0.046910767 -0.03944169 -0.16387726 0.04686816 -0.2626158 -0.20537812
-0.021298666 -0.15779214 -0.10054423 0.006796776 -0.07227099 -0.008284769 -0.069733165 -0.17148796
-0.005688477 0.13642702 -0.010137332 0.0031038383 0.0625875 -0.23103273 0.3031753 -0.022607926
0.17479081 0.16980444 -0.046253245 0.22090602 0.2233004 -0.0018295624 0.24426576 -0.2299114
0.17431378 0.17770149 -0.226522 0.11479774 0.14653999 0.12288431 -0.12229313 0.13684519
0.04431183 -0.10388725 0.010118653 0.06604009 -0.38871637 0.06936576 0.0548639 -0.044873483
0.011269499 -0.1534829 0.22205506 -0.05445844 -0.40355688 0.26756948 -0.070930116 -0.07422313
0.113606885 0.043445785 0.12781006 -0.037566256 0.21142809 0.29297724 -0.093023345 0.13418485
0.3515808 -0.17277597 -0.012242782 0.034417074 -0.17060968 0.02047441 0.08157096 -0.024100551
-0.1892484 -0.34644535 -0.3317248 0.09978057 -0.014573565 -0.19458634 -0.112899184 0.020907631
-0.3788698 0.0033501368 0.1241444 0.011515611 0.013432882 0.19062404 0.0790373 0.10764367
0.15523624 0.014147202 -0.025586491 -0.05274026 -0.016755702 0.08156807 -0.13065498 -0.019649094
-0.31275308 -0.25026417 0.0413931 -0.19225778 -0.2683282 -0.21085879 -0.31028312 -0.026658162
0.13340148 -0.021039205 -0.12295795 0.16310884 0.0016329476 0.103217825 -0.048677173 -0.12923911
0.17050014 0.15959147 -0.13441639 -0.33048582 -0.037006926 -0.0099395225 -0.11549673 -0.19223659
-0.08499681 -0.26528078 -0.15381114 0.017696174 -0.3184749 -0.3902887 -0.09640377 -0.09472326
-0.29407448 -0.31926608 0.05655156 -0.32094118 0.027287526 0.09504167 -0.033633932 0.035634615
-0.017730547 -0.10801609 -0.0897822 -0.009122548 -0.120169856 0.37389952 0.23703307 0.18993326
-0.1014027 0.19669369 0.3848217 0.012241251 -0.15451472 -0.109265365 -0.080050066 -0.062019885
0.06873006 -0.040103327 -0.21825926 -0.009772918 -0.038488876 -0.19694886 -0.26387835 0.26149175
-0.043488078 -0.1692074 0.12859495 -0.11429658 -0.057495214 -0.15558195 0.0023736446 0.12366422
0.2258285 -0.070919365 -0.100674935 0.09547465 0.055591326 -0.13911448 -0.031638168 0.27713794
0.15381038 -0.28450584 -0.05003426 0.16164385 0.16907197 -0.19607607 -0.16989462 -0.0076124445
-0.14343277 0.052505877 -0.23939615 -0.36173388 -0.3133131 -0.12452743 0.045412436 0.01844263
0.017370302 0.1870541 -0.008988036 -0.2621794 -0.06433272 0.10274994 0.11819058 -0.26031592
-0.07064189 0.0055162692 0.21339394 0.094250455 -0.14540571 -0.03199752 0.2952142 0.110676184
0.25554907 0.08402212 0.030263277 -0.008968547 -0.20966184 -0.073886156 0.33078912 -0.006191456
0.051213216 0.26604745 0.0060772244 -0.04097583 -0.12982273 0.029146582 -0.2048627 -0.368746
00000000: 2771 2abe b8c2 5b3e 90bf d13d 07bd 12be
00000010: ad7f 0a3e 8970 f43d ae30 31be da52 b8bd
00000020: 0a6e 923d 8b42 b8bc 286c 51bd c99f 743b
00000030: 9136 08be c2d7 0abe 52ab 59be 2608 8abe
00000040: af8f 1ebe bf87 f0bd bc9d b6bb 768c 94bc
00000050: b937 4abd e6a7 29be 274f 0ebd 004f ce3b
00000060: 7a91 91be fa40 2e3b f823 933d f596 103e
00000070: c3a3 173d f15d 523e b6ba 193e a0a9 133e
00000080: d76d eabd 167e 3b3d 8125 403d 9c8d 21bd
00000090: 71cf 27be d4f8 3f3d 9475 86be a44e 52be
000000a0: 8a7a aebc 4394 21be 22ea cdbd 7db7 de3b
000000b0: d002 94bd d7bc 07bc 43d0 8ebd 8a9a 2fbe
000000c0: 6766 babb 86b3 0b3e 0d17 26bc c469 4b3b
000000d0: e02d 803d d893 6cbe cb39 9b3e 4234 b9bc
000000e0: 5dfc 323e 37e1 2d3e 0b74 3dbd 3035 623e
000000f0: dca8 643e edcd efba ce20 7a3e e56d 6bbe
00000100: 507f 323e 61f7 353e 62f5 67be 141b eb3d
00000110: 940e 163e c5aa fb3d d274 fabd 2521 0c3e
00000120: 5280 353d d7c2 d4bd b5c8 253c 0740 873d
00000130: d505 c7be a30f 8e3d f8b8 603d 42cd 37bd
00000140: b4a3 383c 9f2a 1dbe 6762 633e d00f 5fbd
00000150: 029f cebe defe 883e cf43 91bd 4c02 98bd
00000160: baaa e83d 35f4 313d a4e0 023e 13df 19bd
00000170: 9b80 583e 1d01 963e 0683 bebd c167 093e
00000180: 6602 b43e 2fec 30be f395 48bc ebf8 0c3d
00000190: 4eb4 2ebe f3b9 a73c ad0e a73d 856e c5bc
000001a0: 55ca 41be 4961 b1be d5d7 a9be c159 cc3d
000001b0: f6c5 6ebc a441 47be b037 e7bd 7b46 ab3c
000001c0: 39fb c1be f88d 5b3b 6b3f fe3d f9ab 3c3c
000001d0: 9715 5c3c f332 433e 4fde a13d 4974 dc3d
000001e0: 40f6 1e3e aac9 673c c39a d1bc 2c06 58bd
000001f0: 4143 89bc 290d a73d 6bca 05be 23f7 a0bc
00000200: 2c21 a0be a022 80be d08b 293d 39df 44be
00000210: 5062 89be 5eeb 57be 6edd 9ebe 3862 dabc
00000220: 669a 083e 695a acbc 61d1 fbbd 0106 273e
00000230: a108 d63a de63 d33d b761 47bd 4257 04be
00000240: 9797 2e3e f26b 233e 73a4 09be 7035 a9be
00000250: 9394 17bd 61d9 22bc 8d89 ecbd abd9 44be
00000260: cf12 aebd e2d2 87be ab80 1dbe 91f7 903c
00000270: 240f a3be ecd3 c7be 576f c5bd 45fe c1bd
00000280: ee90 96be d876 a3be 9ca2 673d 6752 a4be
00000290: 178a df3c 35a5 c23d bcc3 09bd 9af5 113d
000002a0: a73f 91bc 8a37 ddbd bbdf b7bd bd76 15bc
000002b0: 9d1b f6bd c26f bf3e ccb8 723e dd7d 423e
000002c0: 38ac cfbd 126a 493e 5a07 c53e 878f 483c
000002d0: 1b39 1ebe 85c6 dfbd 4af1 a3bd 9008 7ebd
000002e0: 58c2 8c3d 6343 24bd 5b7f 5fbe 971e 20bc
000002f0: 83a6 1dbd f6ac 49be 101b 87be 3fe2 853e
00000300: 8e20 32bd b444 2dbe 65ae 033e 5314 eabd
00000310: 1a80 6bbd e050 1fbe 268f 1b3b ab43 fd3d
00000320: 963f 673e 2c3e 91bd a92e cebd 3788 c33d
00000330: bbb3 633d 0774 0ebe 0697 01bd 06e5 8d3e
00000340: 7880 1d3e c0aa 91be b9f0 4cbd f785 253e
00000350: 3421 2d3e 2ac8 48be dbf8 2dbe d071 f9bb
00000360: 0ae0 12be 6710 573d 4424 75be 2f35 b9be
00000370: 936a a0be 3d08 ffbd 6402 3a3d 0015 973c
00000380: 2a4c 8e3c 1c8b 3f3e 8e42 13bc 613c 86be
00000390: e0c0 83bd 8f6e d23d e70d f23d 2148 85be
000003a0: b2ac 90bd d2c1 b43b f183 5a3e 6206 c13d
000003b0: 3ce5 14be d50f 03bd 5126 973e 32aa e23d
000003c0: 54d7 823e ca13 ac3d b1ea f73c d0f0 12bc
000003d0: 98b1 56be a051 97bd 315d a93e b3e1 cabb
000003e0: f3c4 513d 5f37 883e 7423 c73b 46d6 27bd
000003f0: 40f0 04be d0c4 ee3c 87c7 51be 47cc bcbe

bias f4 [32]
-0.18289544 -0.18175267 -0.09518955 -0.00384941 0.015715007 -0.05689111 0.05109897 0.018047329
-0.1937186 -0.24618703 0.00014281174 -0.038461253 -0.10999531 -0.06958225 0.0078013465 0.02010978
-0.23897496 0.123525694 0.07045422 -0.079846434 -0.10808354 -0.20861956 -0.01914481 -0.17563242
-0.028485682 -0.018836085 0.006039369 -0.046273112 -0.19257969 -0.055145063 0.017332902 -0.028790738
00000000: f148 3bbe 5f1d 3abe bdf2 c2bd 6246 7cbb
00000010: c2bc 803c a706 69bd 274d 513d fed7 933c
00000020: 2b5e 46be 7418 7cbe bcbf 1539 8c89 1dbd
00000030: 3945 e1bd 2481 8ebd 70a2 ff3b 44bd a43c
00000040: dab5 74be 0afb fc3d 4d4a 903d 8786 a3bd
00000050: e75a ddbd 5ea0 55be 94d5 9cbc fcd8 33be
00000060: ce5a e9bc 224e 9abc e6e5 c53b e088 3dbd
00000070: 9c33 45be cadf 61bd bbfd 8d3c 8eda ebbc

cpu f4 [128]
-0.00366301 0.08299606 -0.13328804 0.02284618 -0.027071979 0.00054141466 -0.018836105 -0.05572842
0.22953747 0.0019413019 -0.02567988 -0.15308966 0.019194378 -0.02633693 -0.027559457 -0.04184952
0.0035431865 0.0039489 -0.05083027 0.07115284 -0.015032554 -0.047985524 -0.030882612 -0.10389468
-0.01766992 0.0061331387 0.058747042 -0.029037911 0.0921708 -0.028961739 -0.06642347 0.0055385632
0.114372104 -0.08241783 0.017096855 -0.041639157 -0.09005507 0.07465624 -0.017047338 -0.03771762
-0.053935215 0.018993007 -0.01976778 -0.0020551647 0.031587273 0.0051080994 -0.022717861 -0.03347873
0.056172192 -0.08290824 -0.004679803 -0.14363319 -0.039653633 0.09233519 -0.029507654 -0.016175007
-0.0007421512 -0.013998666 -0.07096104 -0.010396812 -0.05150771 0.09778747 -0.008857579 0.05424223
-0.0002888349 -0.11165739 -0.02998244 -0.020974755 0.01648581 -0.03396725 -0.08768866 0.06288728
0.0049750605 -0.02358762 0.028998272 0.11196995 0.008307701 -0.029551147 0.053144123 -0.099539824
-0.00033347346 -0.033391807 0.036016386 -0.015919788 -0.02094474 -0.068160266 -0.05894411 -0.036678202
0.04800034 -0.121029705 0.03360712 -0.0068283845 0.0104590105 -0.053293552 -0.049236793 -0.17709486
-0.03444061 -0.059077527 0.019530183 -0.08239671 0.12926681 -0.0037506486 -0.06966749 -0.03884579
-0.041123595 -0.034788627 -0.0298087 -0.007449151 0.01566085 -0.033385478 -0.07313278 -0.04477926
-0.016538031 -0.12897302 -0.12997435 0.009251066 0.008640106 -0.009036744 0.05010264 0.020470822
-0.05075782 0.1069204 -0.021374138 -0.119623296 0.0051960326 -0.055616688 0.013979938 0.15221775
00000000: 1c0f 70bb d7f9 a93d a97c 08be e927 bb3c
00000010: 0ec6 ddbc b9ed 0d3a 2d4e 9abc 7c43 64bd
00000020: df0b 6b3e 4873 fe3a 9d5e d2bc 89c3 1cbe
00000030: 873d 9d3c 8cc0 d7bc 5fc4 e1bc 676a 2bbd
00000040: ce34 683b c665 813b 6733 50bd 95b8 913d
00000050: 1a4b 76bc 788c 44bd 88fd fcbc bcc6 d4bd
00000060: 82c0 90bc 7ff8 c83b bda0 703d eae0 edbc
00000070: 0bc4 bc3d 2b41 edbc 0709 88bd d67c b53b
00000080: ec3b ea3d aeca a8bd b40e 8c3c d28d 2abd
00000090: cb6e b8bd 5fe5 983d dca6 8bbc cb7d 1abd
000000a0: 2ceb 5cbd 3997 9b3c 0af0 a1bc f1af 06bb
000000b0: a861 013d d861 a73b cf1a babc fe20 09bd
000000c0: d014 663d cccb a9bd 0859 99bb 9414 13be
000000d0: d96b 22bd 3b1a bd3d 09ba f1bc 7381 84bc
000000e0: ed8c 42ba a95a 65bc 0654 91bd 6457 2abc
000000f0: c0f9 52bd cc44 c83d 611f 11bc 1a2d 5e3d
00000100: c46e 97b9 a1ac e4bd bc9d f5bc 40d3 abbc
00000110: 400d 873c 3e21 0bbd 1d96 b3bd 0ccb 803d
00000120: d505 a33b d33a c1bc c98d ed3c 8050 e53d
00000130: 061d 083c 3f15 f2bc a7ad 593d 89db cbbd
00000140: 0dd6 aeb9 d9c5 08bd eb85 133d 376a 82bc
00000150: 4e94 abbc 9c97 8bbd 616f 71bd e23b 16bd
00000160: 019c 443d 6cde f7bd 9fa7 093d a4c0 dfbb
00000170: 455c 2b3c 574a 5abd 85ac 49bd 5b58 35be
00000180: 9911 0dbd 47fb 71bd c3fd 9f3c 9bbf a8bd
00000190: 855e 043e 71cd 75bb d4ad 8ebd c31c 1fbd
000001a0: 3771 28bd 857e 0ebd 6031 f4bc 0218 f4bb
000001b0: 2f4b 803c 36bf 08bd a4c6 95bd 756a 37bd
000001c0: c47a 87bc 8111 04be ff17 05be c891 173c
000001d0: 3b8f 0d3c da0e 14bc 6d38 4d3d 6db2 a73c
000001e0: 6fe7 4fbd 15f9 da3d d118 afbc 0ffd f4bd
000001f0: 7b43 aa3b 53ce 63bd 1c0c 653c f8de 1b3e

cpu f4 [47]
-0.0115673505 0.16352592 -0.007440547 0.049930867 0.013643324 -0.037586562 -0.15713839 0.13479806
-0.035646856 -0.02167111 0.20744762 0.07157082 -0.028378356 -0.097155325 0.18003371 -0.010956206
-0.049484532 0.017749704 0.15115058 0.037613478 -0.13958567 0.0499972 -0.09390096 -0.044826202
0.13013677 -0.12329626 -0.11216491 -0.052368656 -0.009667904 0.03731467 -0.00268695 0.051658213
-0.1971721 0.04496054 -0.09549428 -0.062449962 -0.026200622 0.027183872 -0.17822497 -0.031182127
0.03910654 0.070480846 0.0710277 -0.10807665 -0.027035736 -0.023809265 0.05653051
00000000: fc84 3dbc 5773 273e d5cf f3bb 4f84 4c3d
00000010: 4088 5f3c 5ef4 19bd e3e8 20be 8108 0a3e
00000020: 7002 12bd 9d87 b1bc 266d 543e b993 923d
00000030: ba79 e8bc 5ff9 c6bd c25a 383e a981 33bc
00000040: 4bb0 4abd d467 913c 38c7 1a3e 9710 1a3d
00000050: 8cef 0ebe ddc9 4c3d 264f c0bd ae9b 37bd
00000060: 9342 053e c082 fcbd b7b6 e5bd 8480 56bd
00000070: 2166 1ebc 44d7 183d 8a17 30bb 9097 533d
00000080: 7ce7 49be 8b28 383d 8192 c3bd 88cb 7fbd
00000090: b0a2 d6bc b6b0 de3c 9b80 36be a971 ffbc
000000a0: 2e2e 203d 4358 903d f976 913d 4a57 ddbd
000000b0: 0c7a ddbc a60b c3bc 898c 673d
