weights/mnist_model.pth (torch, 440581 bytes, 6 tensors)

fc1.weight f4 [128, 784]
0.0009031802 0.005944814 0.03224138 -0.01770713 0.008467049 -0.020214478 -0.012586363 -0.008212905
0.013099955 -0.0047180546 0.02254471 0.008794042 0.027126785 -0.0028259617 -0.0035742077 -0.028995266
-0.018979272 0.015358662 -0.026379006 -0.015729427 0.03966465 0.01757139 0.029462343 0.019402796
0.040114105 0.030922042 0.0019765096 0.014718238 -0.00898765 0.019671751 -0.0041414634 0.013857098
-0.022603413 0.022250753 -0.025016848 0.008359932 0.011463255 0.008619997 0.02028516 0.015497646
0.009027352 0.030534748 -0.012811854 -0.028237516 -0.015017566 0.011798238 0.0031770791 0.027489332
0.015610497 -0.02400619 -0.0084160315 -0.015413918 0.029254263 -0.024645297 0.020725327 0.008855184
0.017799024 -0.0050245654 0.02199811 0.019935494 0.036467697 0.0070285737 0.0070862756 0.011560727
-0.01932941 -0.03984505 -0.010904474 -0.012527669 -0.0029836462 -0.02211184 -0.050116748 -0.01441524
-0.02925956 -0.078123696 0.009238032 -0.030505799 0.018991658 0.017136214 -0.013553041 0.03391008
-0.014384991 0.028979778 0.00075286924 -0.019370655 -0.02959335 0.02512878 -0.016324362 0.03551861
-0.004662339 0.019618034 0.024811307 0.009158721 -0.013189344 -0.037738707 -0.024904776 -0.066732034
-0.018821038 -0.04982451 -0.012115475 -0.1118211 -0.14503746 -0.12219497 -0.035309494 -0.051227078
-0.035916276 -0.034097373 -0.05023011 0.011199327 -0.019044591 0.036863994 -0.01870651 0.030263143
-0.014227567 -0.02638525 0.03776369 0.010288831 -0.028741019 -0.046922036 -0.03147881 -0.08676365
-0.04282641 -0.043969575 0.0005440762 0.04912803 0.036882736 0.038230643 0.124923676 0.05356437
0.0089413645 0.014552788 0.018606745 0.04145921 0.017497912 -0.04799128 -0.049923755 -0.006883568
0.02795882 0.013176715 -0.023281425 -0.0013917618 -0.01046942 0.0048510567 -0.02127889 0.010949096
-0.0020987417 -0.01544333 0.019980935 -0.0071762 0.0014228015 0.023031052 0.039045624 0.09854381
0.11813326 0.065712206 0.08201971 0.020263776 0.0068243016 0.017357785 -0.03791183 -0.075635925
-0.02424946 -0.07571327 -0.111332856 -0.06335509 0.017045505 0.024471939 0.04101139 0.017541958
0.0361487 0.0153152915 -0.005311639 -0.009112318 0.012521381 -0.0144201 -0.06018188 -0.044782236
0.052114554 0.060333814 0.08344293 0.06393562 0.08767771 0.095573924 0.059549455 0.058176827
0.052830942 0.056815326 -0.050839428 -0.1017122 -0.14275628 -0.0038811462 0.024370965 -0.003251611
0.032998793 0.022135558 0.028254718 -0.016972885 0.016641611 -0.016445199 -0.021340117 -0.019319607
-0.0068722805 -0.02276724 -0.07533362 -0.0048818365 0.07274775 0.12438095 0.103454866 0.043619238
0.011285201 0.006992376 -0.024732055 0.04486571 0.040574368 0.09555419 0.083253965 -0.033143494
-0.14749748 -0.09146824 0.047862194 0.04893319 0.01886209 0.047045745 0.017043477 -0.0003060045
-0.018692259 0.0010209867 -0.008027009 0.047088552 0.010050852 -0.0120620215 0.02838538 0.0053328997
0.04058648 0.089505814 0.093861565 0.017383778 0.032569252 -0.030226504 0.018214108 0.01357821
0.0632588 0.12602943 0.08914964 -0.021997709 -0.030071905 -0.027957266 0.08144898 0.015828757
-0.008888614 0.032172 0.03396422 0.030019298 0.03326161 0.0038959524 0.03750591 0.06473531
00000000: 66c3 6c3a b7cc c23b 8a0f 043d 8b0e 91bc
00000010: 61b9 0a3c d598 a5bc 0837 4ebc 6c8f 06bc
00000020: 32a1 563c e999 9abb afaf b83c e314 103c
00000030: fe38 de3c c533 39bb 413d 6abb 7b87 edbc
00000040: 6b7a 9bbc e6a2 7b3c c918 d8bc 00db 80bc
00000050: 6677 223d e0f1 8f3c 035b f13c 9df2 9e3c
00000060: b04e 243d 3950 fd3c 5488 013b c424 713c
00000070: f040 13bc a726 a13c 1db5 87bb e208 633c
00000080: cb2a b9bc 3647 b63c 22f0 ccbc 19f8 083c
00000090: 60d0 3b3c e33a 0d3c 102d a63c d7e9 7d3c
000000a0: 75e7 133c 0224 fa3c cfe8 51bc 5d52 e7bc
000000b0: 3d0c 76bc 664d 413c 8b36 503b 4f31 e13c
000000c0: 2cc3 7f3c a1a8 c4bc 65e3 09bc a88a 7cbc
000000d0: a3a6 ef3c efe4 c9bc 29c8 a93c 5515 113c
000000e0: 42cf 913c 1ca5 a4bb 6135 b43c c34f a33c
000000f0: 275f 153d f34f e63b fd33 e83b 3469 3d3c
00000100: b658 9ebc 9034 23bd aea8 32bc da40 4dbc
00000110: 4789 43bb e423 b5bc 3847 4dbd e62d 6cbc
00000120: bfb1 efbc 51ff 9fbd 1d5b 173c 4ce7 f9bc
00000130: 6594 9b3c 3f61 8c3c 930d 5ebc 4ce5 0a3d
00000140: 06af 6bbc 0067 ed3c 335c 453a 35af 9ebc
00000150: c16d f2bc dfda cd3c abba 85bc f67b 113d
00000160: 89c6 98bb 00b6 a03c 1541 cb3c 760e 163c
00000170: 1e18 58bc e793 1abd 1a05 ccbc ceaa 88bd
00000180: 942e 9abc c914 4cbd fc7f 46bc 7602 e5bd
00000190: b384 14be 5b41 fabd b0a0 10bd 7cd3 51bd
000001a0: f21c 13bd b0a9 0bbd 16be 4dbd 627d 373c
000001b0: 6703 9cbc b3fe 163d 653e 99bc 69ea f73c
000001c0: be1a 69bc e125 d8bc 19ae 1a3d 7c92 283c
000001d0: 4972 ebbc 5231 40bd edef 00bd 24b1 b1bd
000001e0: bf6a 2fbd 7119 34bd 56a0 0e3a 793a 493d
000001f0: 5a12 173d bc97 1c3d fcd7 ff3d 5066 5b3d
00000200: cd7e 123c d16e 6e3c 2c6d 983c 22d1 293d
00000210: c857 8f3c 8192 44bd da7c 4cbd 8e8f e1bb
00000220: e509 e53c 26e3 573c b0b8 bebc c76b b6ba
00000230: ee87 2bbc 9df5 9e3b 1151 aebc d663 333c
00000240: 0b8b 09bb 0506 7dbc 0faf a33c 5426 ebbb
00000250: 4c7d ba3a 9eab bc3c 4eee 1f3d 56d1 c93d
00000260: daef f13d 1f94 863d f3f9 a73d 3800 a63c
00000270: 649e df3b ea31 8e3c 6f49 1bbd 02e7 9abd
00000280: cea6 c6bc 8f0f 9bbd 7b02 e4bd 50c0 81bd
00000290: 04a3 8b3c 6079 c83c 8ffb 273d 27b4 8f3c
000002a0: a910 143d fdec 7a3c 420d aebb d54b 15bc
000002b0: 7a26 4d3c 4842 6cbc 4681 76bd 946d 37bd
000002c0: 1276 553d 9720 773d 20e4 aa3d aef0 823d
000002d0: 5f90 b33d 43bc c33d 21ea 733d d34a 6e3d
000002e0: 4265 583d 30b7 683d 013d 50bd 7c4e d0bd
000002f0: b42e 12be d45a 7ebb 9ea5 c73c fb18 55bb
00000300: be29 073d a155 b53c 7076 e73c b80a 8bbc
00000310: fd53 883c 15b8 86bc 78d1 aebc 2744 9ebc
00000320: de30 e1bb 5d82 babc 8348 9abd d0f7 9fbb
00000330: c6fc 943d 71bb fe3d 25e0 d33d 16aa 323d
00000340: 90e5 383c 4d20 e53b e19a cabc 1bc5 373d
00000350: 4f31 263d eab1 c33d 0e81 aa3d 79c1 07bd
00000360: 9409 17be b353 bbbd 260b 443d 2b6e 483d
00000370: ab84 9a3c 0ab3 403d c39e 8b3c 3b6f a0b9
00000380: 8220 99bc a1d2 853a b783 03bc eddf 403d
00000390: 54ac 243c c99f 45bc 7588 e83c 9bbf ae3b
000003a0: 023e 263d d34e b73d 7e3a c03d 6d68 8e3c
000003b0: 5667 053d 939d f7bc c135 953c 2477 5e3c
000003c0: d48d 813d dc0d 013e 1694 b63d 8a34 b4bc
000003d0: 5b59 f6bc a306 e5bc b9ce a63d 4fab 813c
000003e0: 8da1 11bc c9c6 033d 111e 0b3d 08eb f53c
000003f0: 533d 083d 3c53 7f3b cc9f 193d f293 843d

fc1.bias f4 [128]
-0.008892178 -0.028475894 0.028635219 0.029642403 0.009981847 -0.014113602 -0.020302964 0.037203632
-0.031404447 0.024027584 -0.015795536 -0.015645865 0.02017393 -0.0050560804 -0.028988019 0.048009705
0.030486006 0.02984742 -0.019489601 -0.041699268 -0.025607144 -0.041928183 -0.014506622 -0.03998432
0.00010043829 0.023675565 -0.03112001 0.03087455 -0.04112497 -0.0029488744 -0.0017835433 -0.030329386
0.014967514 0.003399228 0.049613558 -0.047973122 -0.0057485746 -0.03730649 0.010057303 0.0117383
0.007863446 0.011702171 0.0072864434 -0.049493745 -0.03364959 -0.016170368 -0.042722393 -0.032512162
-0.020049496 0.029084422 0.027970405 -0.02924995 0.010212269 -0.03287068 0.0045229658 -0.027940499
-0.025026847 0.021615673 -0.0044899024 -0.013427207 -0.032767836 -0.050861932 -0.037932433 -0.014019873
-0.03572622 -0.042718366 -0.005077789 0.030696781 0.010601291 -0.027900772 -0.02317732 -0.044708427
0.023592344 0.017315768 0.0068726074 -0.00049620226 -0.032557853 -0.005795516 -0.0075438363 -0.051245272
-0.027997259 0.0096954005 -0.0056671826 -0.031445388 -0.020559337 -0.028321713 -0.038668483 -0.0032974598
0.009096767 0.0015692847 -0.03685051 0.0074067083 0.025053214 0.02789755 -0.034896925 -0.01909689
0.05777186 -0.035654042 -0.015330451 0.017959256 -0.03504384 -0.013946405 -0.012263992 -0.0026509508
-0.028064972 -0.028979002 0.026069885 -0.028942754 -0.0154181365 -0.0403925 -0.020514194 0.005492593
-0.018143896 -0.0436202 -0.021888338 -0.03056299 -0.027326731 -0.017427009 -0.010411442 -0.027411286
-0.037301123 -0.02028358 0.06515088 0.019866584 -0.026651578 -0.009157191 0.0066405195 0.030486925
00000000: 7fb0 11bc 4746 e9bc 6894 ea3c a0d4 f23c
00000010: e78a 233c bd3c 67bc 6752 a6bc d662 183d
00000020: f3a1 00bd 7fd5 c43c a465 81bc c22b 80bc
00000030: cc43 a53c 7aad a5bb 4878 edbc d3a5 443d
00000040: cabd f93c 9482 f43c a8a8 9fbc dacc 2abd
00000050: 13c6 d1bc e3bc 2bbd 2fad 6dbc 99c6 23bd
00000060: 65a2 d238 42f3 c13c 64ef febc a0ec fc3c
00000070: a872 28bd e741 41bb c8c5 e9ba 5575 f8bc
00000080: 4e3a 753c 95c5 5e3b 9637 4b3d 777f 44bd
00000090: 8a5e bcbb b1ce 18bd 63c7 243c 0052 403c
000000a0: afd5 003c 76ba 3f3c 1ec3 ee3b f4b9 4abd
000000b0: 27d4 09bd b877 84bc adfd 2ebd 792b 05bd
000000c0: d73e a4bc 7442 ee3c 3122 e53c 979d efbc
000000d0: 5c51 273c 68a3 06bd 6335 943b 79e3 e4bc
000000e0: 1a05 cdbc 5a13 b13c 0820 93bb cafd 5bbc
000000f0: 9137 06bd 9a54 50bd 0a5f 1bbd 9cb3 65bc
00000100: a855 12bd 74f9 2ebd 9563 a6bb d177 fb3c
00000110: 0ab1 2d3c 2990 e4bc 5dde bdbc 2f20 37bd
00000120: bb44 c13c ccd9 8d3c 9c33 e13b 9213 02ba
00000130: 625b 05bd 50e8 bdbb 4932 f7bb 90e6 51bd
00000140: 825a e5bc 75d9 1e3c c6b3 b9bb e1cc 00bd
00000150: 0e6c a8bc f002 e8bc d862 1ebd 321a 58bb
00000160: 9b0a 153c 75b0 cd3a 8ff0 16bd f9b3 f23b
00000170: 663c cd3c 6789 e43c 14f0 0ebd 1571 9cbc
00000180: 30a2 6c3d f909 12bd 922c 7bbc 4a1f 933c
00000190: 218a 0fbd 767f 64bc e9ee 48bc 93bb 2dbb
000001a0: 83e8 e5bc 5f65 edbc 8390 d53c 5b19 edbc
000001b0: 5a9c 7cbc 9b72 25bd 620d a8bc 36fb b33b
000001c0: 82a2 94bc 18ab 32bd 2c4f b3bc 3c5f fabc
000001d0: 4fdc dfbc 16c3 8ebc c194 2abc a28d e0bc
000001e0: 10c9 18bd c029 a6bc d36d 853d 3fbf a23c
000001f0: 6954 dabc 0b08 16bc b798 d93b b7bf f93c

fc2.weight f4 [64, 128]
0.075969614 0.10900935 -0.015783403 -0.01178319 0.05952283 0.025732381 0.22129902 -0.1654554
0.123368815 -0.20964293 -0.12860152 -0.07436347 -0.040141933 0.066552326 0.21470448 0.022051604
-0.023282275 0.07281807 -0.04525813 -0.06536594 0.019634113 0.060326736 0.057028912 -0.17323436
0.040079847 -0.1402997 -0.0398305 0.12965378 0.058440443 0.0042821625 0.10642916 0.06175634
0.09767883 0.010905152 0.049847323 -0.0073158457 -0.08906803 -0.14074388 -0.04370883 -0.27368507
0.0053532626 0.0041178935 -0.030541362 -0.12483794 -0.10088702 -0.13258964 -0.06399313 0.030123318
-0.12913181 0.014494606 0.007366279 0.04120596 -0.099912964 -0.06752171 -0.18151459 -0.04243011
0.06972553 0.04106988 0.16381373 -0.022045596 -0.033189867 0.019066691 -0.33862874 0.0030078844
-0.032119714 0.0941703 0.09908125 -0.13101926 0.009905903 0.048627898 -0.07508614 0.08290953
-0.008016287 0.029651934 0.0367728 -0.03148205 -0.15313685 -0.1483306 0.02269839 0.07410292
0.013274171 -0.051816057 -0.0612426 -0.046674453 0.21850401 0.107647926 -0.04983274 -0.10805781
-0.09650936 0.056157354 0.19251624 -0.048127454 -0.021108268 0.10326037 -0.10234299 0.059181064
0.06732271 -0.049972977 0.027291587 0.055974256 -0.008428168 -0.009619671 0.03674655 0.090459794
0.05682615 0.056459196 -0.02718964 0.010537145 0.06630209 0.061936878 0.016701648 0.16362324
0.014359427 0.037605245 0.020207379 -0.12456628 -0.015539747 0.0062563797 0.059064303 -0.07026871
-0.041299686 -0.07857362 0.123247996 -0.07998695 0.16887553 0.06074163 0.04648952 -0.045653302
0.034121025 0.1048804 0.023119608 -0.017534845 -0.04748169 -0.09386366 -0.12705238 -0.0396114
-0.027001636 0.0980504 0.17636839 -0.07900345 0.004002017 -0.09427202 -0.03223222 -0.032197658
0.014098184 -0.092495985 0.07303028 -0.013861192 0.030522427 0.059345618 0.09556487 0.028264448
0.056097414 0.039731544 0.10792465 -0.086920805 -0.116187975 0.12933074 -0.053160507 -0.05453559
0.05902425 0.08951927 -0.019673519 0.08377527 0.05154472 0.074825674 -0.01941957 -0.06559118
-0.23612699 -0.007763776 0.038739022 -0.027120493 0.11399949 -0.1773668 -0.0012501245 0.07657924
0.12637036 0.03325313 0.0920924 0.06076598 0.09028153 0.15487455 -0.10818413 0.06932717
-0.0036084596 0.00036881564 -0.13386813 -0.0258339 -0.026037814 0.02465279 0.20404984 -0.101573996
-0.07346271 -0.05683611 -0.05968328 -0.0066421744 -0.044396628 -0.14448257 0.07212916 0.041359738
0.047951423 -0.19289233 -0.006986372 -0.07474762 -0.012635451 0.14325051 -0.22884591 -0.033295672
-0.13846175 0.14293386 -0.026126474 -0.078539066 -0.046595864 0.06989997 0.13959947 0.07812477
0.10467834 0.045855843 0.0815825 0.023368374 -0.008914641 -0.045782957 -0.043932725 0.13149154
0.064144135 0.08252311 -0.0072608283 -0.091086626 0.056981996 0.07078916 0.093923956 0.056294747
-0.16763672 -0.19781712 -0.1152544 0.099963814 -0.060164522 0.02586783 0.078118004 -0.27631032
0.06536169 -0.042004704 0.035606842 0.11396519 0.075614564 -0.07323676 0.019698745 -0.01886449
-0.016905142 -0.029015271 -0.070715286 0.008191928 -0.12506805 -0.009716605 0.045919213 -0.01687389
00000000: f595 9b3d 4b40 df3d 324c 81bc 480e 41bc
00000010: 36ce 733d b7cc d23c 369c 623e 246d 29be
00000020: caa8 fc3d a3ac 56be 1eb0 03be e04b 98bd
00000030: de6b 24bd 964c 883d 7edb 5b3e 91a5 b43c
00000040: 78ba bebc a421 953d 9760 39bd 94de 85bd
00000050: b8d7 a03c 2b19 773d 2697 693d 5964 31be
00000060: c42a 243d b9aa 0fbe 4e25 23bd f6c3 043e
00000070: 3f5f 6f3d 6251 8c3b 88f7 d93d 37f4 7c3d
00000080: d70b c83d 86ab 323c b52c 4c3d c3b9 efbb
00000090: 4d69 b6bd 2a1f 10be 0808 33bd 7320 8cbe
000000a0: 6c6a af3b 65ef 863b e131 fabc 09ab ffbd
000000b0: db9d cebd 94c5 07be d50e 83bd 2dc5 f63c
000000c0: 213b 04be c97a 6d3c d460 f13b 95c7 283d
000000d0: 2b9f ccbd d348 8abd f6de 39be 32cb 2dbd
000000e0: 42cc 8e3d e438 283d c9be 273e f798 b4bc
000000f0: 19f2 07bd c031 9c3c bf60 adbe ed1f 453b
00000100: f68f 03bd 5cdc c03d 1ceb ca3d ea29 06be
00000110: 5e4c 223c 0c2e 473d c3c6 99bd 79cc a93d
00000120: bf56 03bc 9de8 f23c 139f 163d 52f3 00bd
00000130: e8cf 1cbe fae3 17be f9f1 b93c 46c3 973d
00000140: e97b 593c 133d 54bd 85d9 7abd b62d 3fbd
00000150: 84bf 5f3e 8476 dc3d 6a1d 4cbd 6a4d ddbd
00000160: b3a6 c5bd 4105 663d fa22 453e 4b21 45bd
00000170: 3feb acbc 2c7a d33d 3499 d1bd d867 723d
00000180: 7de0 893d 77b0 4cbd 9b92 df3c 4345 653d
00000190: 4c16 0abc d39b 1dbc 8d83 163d fc42 b93d
000001a0: 89c2 683d c241 673d cfbc debc fda3 2c3c
000001b0: 64c9 873d 86b1 7d3d e5d1 883c da8c 273e
000001c0: cd43 6b3c f507 1a3d f289 a53c 9b1c ffbd
000001d0: 6c9a 7ebc 5102 cd3b 69ed 713d 0be9 8fbd
000001e0: dc29 29bd 35eb a0bd 7269 fc3d 33d0 a3bd
000001f0: b5ed 2c3e 37cc 783d cc6b 3e3d f5fe 3abd
00000200: 7dc2 0b3d 89cb d63d 5565 bd3c 3ca5 8fbc
00000210: 297c 42bd 973b c0bd 051a 02be 903f 22bd
00000220: 8932 ddbc a6ce c83d ea99 343e 90cc a1bd
00000230: 5a23 833b b011 c1bd ef05 04bd b1e1 03bd
00000240: 12fc 663c 896e bdbd e690 953d 0e1a 63bc
00000250: 2b0a fa3c 6414 733d 84b7 c33d d88a e73c
00000260: 67c6 653d 8bbd 223d 9907 dd3d 8903 b2bd
00000270: f6f3 edbd 476f 043e d5be 59bd b660 5fbd
00000280: 69c3 713d e155 b73d 5c2a a1bc 5e92 ab3d
00000290: 8e20 533d 343e 993d ca15 9fbc ab54 86bd
000002a0: 46cb 71be 4667 febb cfac 1e3d cc2b debc
000002b0: 9178 e93d a49f 35be 38db a3ba 94d5 9c3d
000002c0: 3b67 013e 6f34 083d f19a bc3d c0e5 783d
000002d0: 86e5 b83d 6f97 1e3e a48f ddbd 67fb 8d3d
000002e0: e87b 6cbb 995d c139 ba14 09be 9da1 d3bc
000002f0: 414d d5bc a6f4 c93c 71f2 503e 0706 d0bd
00000300: 9e73 96bd fbcc 68bd 7476 74bd 99a6 d9bb
00000310: 3dd9 35bd 3df3 13be 74b8 933d d468 293d
00000320: b668 443d 9185 45be f0ed e4bb 4815 99bd
00000330: ec04 4fbc 43b0 123e 9556 6abe 0b61 08bd
00000340: ebc8 0dbe 415d 123e 3007 d6bc 17d9 a0bd
00000350: 4edb 3ebd b727 8f3d 2af3 0e3e e1ff 9f3d
00000360: 9961 d63d 56d3 3b3d ba14 a73d 086f bf3c
00000370: b70e 12bc e986 3bbd cdf2 33bd b8a5 063e
00000380: 005e 833d e001 a93d 3eec edbb a08b babd
00000390: f465 693d e8f9 903d 345b c03d 5295 663d
000003a0: f6a8 2bbe 9290 4abe 800a ecbd d4b9 cc3d
000003b0: 136f 76bd c5e8 d33c 55fc 9f3d 8c78 8dbe
000003c0: 5adc 853d 200d 2cbd 7bd8 113d 9566 e93d
000003d0: cfdb 9a3d 28fd 95bd 435f a13c b489 9abc
000003e0: a77c 8abc 6fb1 edbc 2dd3 90bd 7037 063c
000003f0: d711 00be 6532 1fbc c915 3c3d 1d3b 8abc

fc2.bias f4 [64]
0.059774436 0.0282157 0.009063055 0.022898307 -0.021248482 -0.020068552 0.06114998 -0.033346545
0.029047165 -0.08078839 0.035377644 -0.111527614 0.011179393 -0.094257966 0.03827391 0.0036689106
-0.022701584 0.018641358 0.0003271823 -0.10854949 0.1266607 -0.06465201 0.1253791 -0.013118204
0.101666786 -0.02710514 0.080004305 -0.01943121 -3.2551317e-05 -0.021270145 -0.056384463 -0.1465053
-0.031606544 -0.06105144 0.08481787 0.0051053576 0.008794568 -0.024185011 -0.029666081 0.12594952
-0.09548773 0.03390137 -0.032925952 0.1393361 0.024573078 -0.07108295 0.05247133 0.057096574
0.045292508 0.0731342 0.054267522 0.060588237 0.03071462 0.040145297 -0.12554365 -0.0016793364
-0.071856126 -0.026656955 -0.0006572211 0.015930422 -0.013960122 0.06257716 -0.12616499 -0.071737595
00000000: 0ad6 743d 9d24 e73c 357d 143c 3b95 bb3c
00000010: 4c11 aebc ce66 a4bc 6778 7a3d 6396 08bd
00000020: 52f4 ed3c 6274 a5bd 26e8 103d 9768 e4bd
00000030: c629 373c 520a c1bd 1ac5 1c3d 1b72 703b
00000040: acf8 b9bc c3b5 983c aa89 ab39 324f debd
00000050: 58b3 013e 4668 84bd 6163 003e bced 56bc
00000060: ad36 d03d 990b debc 4cd9 a33d 332e 9fbc
00000070: b687 08b8 ba3e aebc 65f3 66bd 7c05 16be
00000080: dd75 01bd 1311 7abd feb4 ad3d d84a a73b
00000090: 1717 103c a51f c6bc 4806 f3bc e9f8 003e
000000a0: 128f c3bd 2adc 0a3d 5ddd 06bd 1fae 0e3e
000000b0: 7b4d c93c f093 91bd 2dec 563d 19de 693d
000000c0: a384 393d 62c7 953d 9f47 5e3d 5f2b 783d
000000d0: 3a9d fb3c 656f 243d 848e 00be 2e1d dcba
000000e0: 4e29 93bd b05f dabc 5d49 2cba 8480 823c
000000f0: ffb8 64bc 7428 803d 6531 01be 29eb 92bd

out.weight f4 [10, 64]
0.11354874 0.0551578 -0.010750865 -0.13326456 -0.06535568 0.12951396 -0.19551465 0.21529043
-0.21505971 -0.11225189 0.073323645 -0.00807255 -0.11729697 -0.28609106 0.083173126 -0.35824558
0.05994936 -0.04094562 0.09429156 -0.014179734 -0.1547419 -0.099277206 -0.074223086 -0.055154014
-0.062085364 -0.19924712 -0.22983819 -0.051236667 0.11947531 0.23213334 -0.20593686 0.27080214
0.044205867 -0.32498693 -0.06928837 -0.1823745 0.16668065 0.06869788 -0.11440502 0.079570554
0.107190974 0.16744691 0.1762483 -0.3028428 0.07727313 -0.0036196508 -0.1319545 -0.05939428
-0.041821953 0.03673422 0.026999988 0.18291074 -0.16355653 0.035148617 0.13729312 -0.10127622
-0.039426874 -0.013372367 0.012423193 0.08259074 0.09527944 0.0060115056 0.0059168413 0.079445235
-0.025843374 -0.2921854 0.18074732 0.067466415 -0.058849674 0.17799318 -0.011907864 0.15651074
-0.12759441 0.21472298 0.17647746 -0.08095095 0.019221915 0.09668699 -0.24329916 0.16430192
0.14276269 -0.10658112 -0.038770583 0.06618929 -0.025014995 0.13053612 -0.01605099 0.008505509
-0.16949645 0.04714592 -0.10676846 0.1880075 -0.029697645 0.001059441 -0.16768566 0.18173549
-0.0021458166 0.08114356 -0.23236023 0.08109303 -0.13069677 0.20733579 0.016555082 0.109841876
0.0754714 -0.094892666 -0.096333735 -0.03561437 -0.004760053 0.045313746 0.16724546 -0.154792
0.051872734 -0.35984802 0.11843135 -0.13484472 -0.16415606 0.06706865 0.1948301 -0.008851828
-0.0025126832 -0.00012411813 -0.09181344 -0.27603742 0.05839425 0.050660092 -0.015206145 -0.13258655
0.055879805 -0.1088215 -0.119257115 0.0344105 0.123984635 0.019289784 0.04715346 -0.083532944
-0.021701934 -0.048067685 0.1133925 0.12461782 0.040189717 -0.13913172 0.102662235 0.09000232
-0.32684672 -0.0068102507 0.10704604 -0.07005727 -0.023986587 0.057035133 -0.12234439 0.10798885
-0.32020098 0.12558092 -0.21022816 -0.31348485 0.07217891 -0.120071314 -0.16886057 -0.124687895
0.093455546 -0.02332189 0.0729235 -0.2901842 0.044912316 -0.27926338 0.08316915 -0.014286838
0.012880766 -0.18272205 0.070329376 0.16754916 -0.16302729 -0.25263372 -0.0094743855 0.13964064
0.07540753 -0.09934773 0.17436184 0.04051366 -0.17746519 0.043552507 -0.047794614 0.1981666
0.026466064 -0.019135758 -0.102351844 -0.088637926 -0.046339452 -0.2863545 -0.03762248 0.12996426
-0.059822746 0.055152167 -0.25556672 -0.056718994 -0.004639817 0.12137174 0.13825448 -0.0727962
-0.12359041 -0.09146515 -0.16860433 -0.22018002 0.014820764 -0.16382043 -0.13181096 0.13600811
0.0023006035 0.11645806 0.02524491 0.022556387 -0.15980296 0.078743845 0.017917747 0.14390172
-0.031977005 0.09424668 0.055862904 -0.17208774 0.10264165 -0.16116714 -0.16426338 -0.13493884
-0.046272777 0.1665369 0.12904565 -0.006438292 -0.03788235 -0.1033518 0.1519204 -0.22681282
0.1452096 0.13232383 0.020317927 -0.080729224 -0.19379929 0.071271405 -0.2853867 -0.0052674445
-0.03982545 0.079208426 0.13080905 -0.13587402 0.12368207 -0.19979389 -0.12188767 -0.07924422
-0.062626205 -0.12137462 -0.08255835 -0.010624984 0.062616244 0.119751446 0.05502171 -0.10684774
00000000: 3e8c e83d 25ed 613d 6524 30bc 8176 08be
00000010: 33d9 85bd 4f9f 043e fe34 48be 1875 5c3e
00000020: 9d38 5cbe 52e4 e5bd b52a 963d bb42 04bc
00000030: 6539 f0bd 877a 92be ac56 aa3d f76b b7be
00000040: 768d 753d 98b6 27bd ef1b c13d 1d52 68bc
00000050: a974 1ebe d951 cbbd 4602 98bd 2de9 61bd
00000060: 394d 7ebd 7007 4cbe b45a 6bbe 8add 51bd
00000070: 79af f43d 5db4 6d3e 1de1 52be 94a6 8a3e
00000080: 3611 353d b064 a6be 10e7 8dbd 62c0 3abe
00000090: 55ae 2a3e 79b1 8c3d 2e4d eabd e3f5 a23d
000000a0: f186 db3d 3477 2b3e 6f7a 343e 360e 9bbe
000000b0: 6041 9e3d aa37 6dbb 151f 07be 6b47 73bd
000000c0: 7f4d 2bbd 9f76 163d 142f dd3c f44c 3b3e
000000d0: 5d7b 27be fff7 0f3d 9196 0c3e e869 cfbd
000000e0: 137e 21bd c617 5bbc a68a 4b3c 5525 a93d
000000f0: de21 c33d 2afc c43b 10e2 c13b 2fb4 a23d
00000100: 7cb5 d3bc 5399 95be d315 393e d52b 8a3d
00000110: 5b0c 71bd d843 363e 3419 43bc 5a44 203e
00000120: 1ca8 02be 57e0 5b3e 82b6 343e 9dc9 a5bd
00000130: 4777 9d3c d403 c63d 6a23 79be c33e 283e
00000140: 6230 123e 3447 dabd e7cd 1ebd 408e 873d
00000150: 3fec ccbc 43ab 053e 5e7d 83bc b15a 0b3c
00000160: 7a90 2dbe 151c 413d 6ca9 dabd 0a85 403e
00000170: 7a48 f3bc f1dc 8a3a cab5 2bbe de18 3a3e
00000180: d4a0 0cbb 982e a63d d7ef 6dbe 1a14 a63d
00000190: 60d5 05be d54f 543e 869e 873c c7f4 e03d
000001a0: c090 9a3d 1657 c2bd 9f4a c5bd 60e0 11bd
000001b0: 38fa 9bbb e89a 393d 6542 2b3e cb81 1ebe
000001c0: 8178 543d 003e b8be 238c f23d bc14 0abe
000001d0: 8718 28be 4a5b 893d 8b81 473e 4207 11bc
000001e0: d4ab 24bb b525 02b9 af08 bcbd c754 8dbe
000001f0: cf2e 6f3d f580 4f3d 3223 79bc c5c4 07be
00000200: 39e2 643d cedd debd 133d f4bd 06f2 0c3d
00000210: a8eb fd3d 9c05 9e3c fd23 413d 5213 abbd
00000220: 41c8 b1bc 9fe2 44bd 543a e83d a137 ff3d
00000230: f99d 243d 8c78 0ebe 9440 d23d 2353 b83d
00000240: 7458 a7be 8628 dfbb f43a db3d 307a 8fbd
00000250: 857f c4bc ac9d 693d b28f fabd 4229 dd3d
00000260: 62f1 a3be 4998 003e 0d46 57be 1681 a0be
00000270: 89d2 933d f3e7 f5bd c9e9 2cbe 5e5c ffbd
00000280: 9f65 bf3d 8c0d bfbc ea58 953d 0693 94be
00000290: faf5 373d 9cfb 8ebe 9654 aa3d 5713 6abc
000002a0: d909 533c 7d1b 3bbe d908 903d 0292 2b3e
000002b0: a0f0 26be 3559 81be 743a 1bbc f5fd 0e3e
000002c0: 436f 9a3d d376 cbbd e98b 323e a7f1 253d
000002d0: 6fb9 35be 1d64 323d 49c4 43bd 2fec 4a3e
000002e0: 5ccf d83c 98c2 9cbc d89d d1bd cd87 b5bd
000002f0: 70ce 3dbd 0f9d 92be 081a 1abd 5a15 053e
00000300: b208 75bd 3de7 613d a4d9 82be 2d52 68bd
00000310: 9b09 98bb bf91 f83d 9592 0d3e 2d16 95bd
00000320: f81c fdbd 1552 bbbd 9da6 2cbe df76 61be
00000330: cad2 723c 8bc0 27be 74f9 06be b645 0b3e
00000340: b9c5 163b 9081 ee3d 6ace ce3c 2cc8 b83c
00000350: 63a3 23be 7444 a13d 3dc8 923c f95a 133e
00000360: 52fa 02bd 6704 c13d 80d0 643d c537 30be
00000370: c935 d23d 0009 25be a934 28be 682d 0abe
00000380: 8688 3dbd a688 2a3e 8b24 043e 4ff8 d2bb
00000390: 862a 1bbd 1caa d3bd 0591 1b3e 9f41 68be
000003a0: d3b1 143e e67f 073e c871 a63c 5d55 a5bd
000003b0: 5273 46be bef6 913d 351e 92be 879a acbb
000003c0: 0320 23bd 0738 a23d cff2 053e 8f22 0bbe
000003d0: 064d fd3d c596 4cbe 3ea0 f9bd cb4a a2bd
000003e0: 2b42 80bd 4293 f8bd 5a14 a9bd 6a14 2ebc
000003f0: f23c 803d 3f40 f53d 725e 613d fdd2 dabd

out.bias f4 [10]
-0.05596133 0.01874506 -0.0005103505 -0.02171259 0.040896874 -0.008600814 0.0284708 0.014453822
0.08542086 -0.040365446
00000000: b537 65bd 3d8f 993c 0bc9 05ba 9ade b1bc
00000010: 7b83 273d 6eea 0cbc 983b e93c b9cf 6c3c
00000020: 22f1 ae3d 3d56 25bd
